<?xml version="1.0" ?>
<net name="human-pose-estimation-0001" version="11">
	<layers>
		<layer id="0" name="data" type="Parameter" version="opset1">
			<data shape="1,3,256,456" element_type="f32"/>
			<rt_info>
				<attribute name="fused_names" version="0" value="data"/>
				<attribute name="old_api_map_element_type" version="0" value="f16"/>
			</rt_info>
			<output>
				<port id="0" precision="FP32" names="data">
					<dim>1</dim>
					<dim>3</dim>
					<dim>256</dim>
					<dim>456</dim>
					<rt_info>
						<attribute name="layout" version="0" layout="[N,C,H,W]"/>
					</rt_info>
				</port>
			</output>
		</layer>
		<layer id="1" name="data_mul_892714447_compressed" type="Const" version="opset1">
			<data element_type="f16" shape="1, 1, 1, 1" offset="0" size="2"/>
			<output>
				<port id="0" precision="FP16">
					<dim>1</dim>
					<dim>1</dim>
					<dim>1</dim>
					<dim>1</dim>
				</port>
			</output>
		</layer>
		<layer id="2" name="data_mul_892714447" type="Convert" version="opset1">
			<data destination_type="f32"/>
			<rt_info>
				<attribute name="decompression" version="0"/>
				<attribute name="fused_names" version="0" value="data_mul_892714447"/>
			</rt_info>
			<input>
				<port id="0" precision="FP16">
					<dim>1</dim>
					<dim>1</dim>
					<dim>1</dim>
					<dim>1</dim>
				</port>
			</input>
			<output>
				<port id="1" precision="FP32">
					<dim>1</dim>
					<dim>1</dim>
					<dim>1</dim>
					<dim>1</dim>
				</port>
			</output>
		</layer>
		<layer id="3" name="data/scale/Fused_Mul_" type="Multiply" version="opset1">
			<data auto_broadcast="numpy"/>
			<rt_info>
				<attribute name="fused_names" version="0" value="data/scale/Fused_Mul_"/>
			</rt_info>
			<input>
				<port id="0" precision="FP32">
					<dim>1</dim>
					<dim>3</dim>
					<dim>256</dim>
					<dim>456</dim>
				</port>
				<port id="1" precision="FP32">
					<dim>1</dim>
					<dim>1</dim>
					<dim>1</dim>
					<dim>1</dim>
				</port>
			</input>
			<output>
				<port id="2" precision="FP32">
					<dim>1</dim>
					<dim>3</dim>
					<dim>256</dim>
					<dim>456</dim>
				</port>
			</output>
		</layer>
		<layer id="4" name="data_add_892914483_compressed" type="Const" version="opset1">
			<data element_type="f16" shape="1, 3, 1, 1" offset="2" size="6"/>
			<output>
				<port id="0" precision="FP16">
					<dim>1</dim>
					<dim>3</dim>
					<dim>1</dim>
					<dim>1</dim>
				</port>
			</output>
		</layer>
		<layer id="5" name="data_add_892914483" type="Convert" version="opset1">
			<data destination_type="f32"/>
			<rt_info>
				<attribute name="decompression" version="0"/>
				<attribute name="fused_names" version="0" value="data_add_892914483"/>
			</rt_info>
			<input>
				<port id="0" precision="FP16">
					<dim>1</dim>
					<dim>3</dim>
					<dim>1</dim>
					<dim>1</dim>
				</port>
			</input>
			<output>
				<port id="1" precision="FP32">
					<dim>1</dim>
					<dim>3</dim>
					<dim>1</dim>
					<dim>1</dim>
				</port>
			</output>
		</layer>
		<layer id="6" name="data/mean/Fused_Add_" type="Add" version="opset1">
			<data auto_broadcast="numpy"/>
			<rt_info>
				<attribute name="fused_names" version="0" value="data/mean/Fused_Add_"/>
			</rt_info>
			<input>
				<port id="0" precision="FP32">
					<dim>1</dim>
					<dim>3</dim>
					<dim>256</dim>
					<dim>456</dim>
				</port>
				<port id="1" precision="FP32">
					<dim>1</dim>
					<dim>3</dim>
					<dim>1</dim>
					<dim>1</dim>
				</port>
			</input>
			<output>
				<port id="2" precision="FP32">
					<dim>1</dim>
					<dim>3</dim>
					<dim>256</dim>
					<dim>456</dim>
				</port>
			</output>
		</layer>
		<layer id="7" name="conv1/bn/mean/Fused_Mul__copy_compressed" type="Const" version="opset1">
			<data element_type="f16" shape="32, 3, 3, 3" offset="8" size="1728"/>
			<output>
				<port id="0" precision="FP16">
					<dim>32</dim>
					<dim>3</dim>
					<dim>3</dim>
					<dim>3</dim>
				</port>
			</output>
		</layer>
		<layer id="8" name="conv1/bn/mean/Fused_Mul__copy" type="Convert" version="opset1">
			<data destination_type="f32"/>
			<rt_info>
				<attribute name="decompression" version="0"/>
				<attribute name="fused_names" version="0" value="conv1/bn/mean/Fused_Mul__copy"/>
			</rt_info>
			<input>
				<port id="0" precision="FP16">
					<dim>32</dim>
					<dim>3</dim>
					<dim>3</dim>
					<dim>3</dim>
				</port>
			</input>
			<output>
				<port id="1" precision="FP32">
					<dim>32</dim>
					<dim>3</dim>
					<dim>3</dim>
					<dim>3</dim>
				</port>
			</output>
		</layer>
		<layer id="9" name="conv1" type="Convolution" version="opset1">
			<data strides="2, 2" dilations="1, 1" pads_begin="1, 1" pads_end="1, 1" auto_pad="explicit"/>
			<rt_info>
				<attribute name="fused_names" version="0" value="conv1"/>
			</rt_info>
			<input>
				<port id="0" precision="FP32">
					<dim>1</dim>
					<dim>3</dim>
					<dim>256</dim>
					<dim>456</dim>
				</port>
				<port id="1" precision="FP32">
					<dim>32</dim>
					<dim>3</dim>
					<dim>3</dim>
					<dim>3</dim>
				</port>
			</input>
			<output>
				<port id="2" precision="FP32">
					<dim>1</dim>
					<dim>32</dim>
					<dim>128</dim>
					<dim>228</dim>
				</port>
			</output>
		</layer>
		<layer id="10" name="data_add_89328937_compressed" type="Const" version="opset1">
			<data element_type="f16" shape="1, 32, 1, 1" offset="1736" size="64"/>
			<output>
				<port id="0" precision="FP16">
					<dim>1</dim>
					<dim>32</dim>
					<dim>1</dim>
					<dim>1</dim>
				</port>
			</output>
		</layer>
		<layer id="11" name="data_add_89328937" type="Convert" version="opset1">
			<data destination_type="f32"/>
			<rt_info>
				<attribute name="decompression" version="0"/>
				<attribute name="fused_names" version="0" value="data_add_89328937"/>
			</rt_info>
			<input>
				<port id="0" precision="FP16">
					<dim>1</dim>
					<dim>32</dim>
					<dim>1</dim>
					<dim>1</dim>
				</port>
			</input>
			<output>
				<port id="1" precision="FP32">
					<dim>1</dim>
					<dim>32</dim>
					<dim>1</dim>
					<dim>1</dim>
				</port>
			</output>
		</layer>
		<layer id="12" name="conv1/bn/variance/Fused_Add_" type="Add" version="opset1">
			<data auto_broadcast="numpy"/>
			<rt_info>
				<attribute name="fused_names" version="0" value="conv1/bn/variance/Fused_Add_"/>
			</rt_info>
			<input>
				<port id="0" precision="FP32">
					<dim>1</dim>
					<dim>32</dim>
					<dim>128</dim>
					<dim>228</dim>
				</port>
				<port id="1" precision="FP32">
					<dim>1</dim>
					<dim>32</dim>
					<dim>1</dim>
					<dim>1</dim>
				</port>
			</input>
			<output>
				<port id="2" precision="FP32" names="conv1">
					<dim>1</dim>
					<dim>32</dim>
					<dim>128</dim>
					<dim>228</dim>
				</port>
			</output>
		</layer>
		<layer id="13" name="relu1" type="ReLU" version="opset1">
			<rt_info>
				<attribute name="fused_names" version="0" value="relu1"/>
			</rt_info>
			<input>
				<port id="0" precision="FP32">
					<dim>1</dim>
					<dim>32</dim>
					<dim>128</dim>
					<dim>228</dim>
				</port>
			</input>
			<output>
				<port id="1" precision="FP32" names="conv1">
					<dim>1</dim>
					<dim>32</dim>
					<dim>128</dim>
					<dim>228</dim>
				</port>
			</output>
		</layer>
		<layer id="14" name="conv2_1/dw/bn/mean/Fused_Mul__copy_compressed" type="Const" version="opset1">
			<data element_type="f16" shape="32, 1, 1, 3, 3" offset="1800" size="576"/>
			<output>
				<port id="0" precision="FP16">
					<dim>32</dim>
					<dim>1</dim>
					<dim>1</dim>
					<dim>3</dim>
					<dim>3</dim>
				</port>
			</output>
		</layer>
		<layer id="15" name="conv2_1/dw/bn/mean/Fused_Mul__copy" type="Convert" version="opset1">
			<data destination_type="f32"/>
			<rt_info>
				<attribute name="decompression" version="0"/>
				<attribute name="fused_names" version="0" value="conv2_1/dw/bn/mean/Fused_Mul__copy"/>
			</rt_info>
			<input>
				<port id="0" precision="FP16">
					<dim>32</dim>
					<dim>1</dim>
					<dim>1</dim>
					<dim>3</dim>
					<dim>3</dim>
				</port>
			</input>
			<output>
				<port id="1" precision="FP32">
					<dim>32</dim>
					<dim>1</dim>
					<dim>1</dim>
					<dim>3</dim>
					<dim>3</dim>
				</port>
			</output>
		</layer>
		<layer id="16" name="conv2_1/dw" type="GroupConvolution" version="opset1">
			<data strides="1, 1" pads_begin="1, 1" pads_end="1, 1" dilations="1, 1" auto_pad="explicit"/>
			<rt_info>
				<attribute name="fused_names" version="0" value="conv2_1/dw"/>
			</rt_info>
			<input>
				<port id="0" precision="FP32">
					<dim>1</dim>
					<dim>32</dim>
					<dim>128</dim>
					<dim>228</dim>
				</port>
				<port id="1" precision="FP32">
					<dim>32</dim>
					<dim>1</dim>
					<dim>1</dim>
					<dim>3</dim>
					<dim>3</dim>
				</port>
			</input>
			<output>
				<port id="2" precision="FP32">
					<dim>1</dim>
					<dim>32</dim>
					<dim>128</dim>
					<dim>228</dim>
				</port>
			</output>
		</layer>
		<layer id="17" name="data_add_89408945_compressed" type="Const" version="opset1">
			<data element_type="f16" shape="1, 32, 1, 1" offset="2376" size="64"/>
			<output>
				<port id="0" precision="FP16">
					<dim>1</dim>
					<dim>32</dim>
					<dim>1</dim>
					<dim>1</dim>
				</port>
			</output>
		</layer>
		<layer id="18" name="data_add_89408945" type="Convert" version="opset1">
			<data destination_type="f32"/>
			<rt_info>
				<attribute name="decompression" version="0"/>
				<attribute name="fused_names" version="0" value="data_add_89408945"/>
			</rt_info>
			<input>
				<port id="0" precision="FP16">
					<dim>1</dim>
					<dim>32</dim>
					<dim>1</dim>
					<dim>1</dim>
				</port>
			</input>
			<output>
				<port id="1" precision="FP32">
					<dim>1</dim>
					<dim>32</dim>
					<dim>1</dim>
					<dim>1</dim>
				</port>
			</output>
		</layer>
		<layer id="19" name="conv2_1/dw/bn/variance/Fused_Add_" type="Add" version="opset1">
			<data auto_broadcast="numpy"/>
			<rt_info>
				<attribute name="fused_names" version="0" value="conv2_1/dw/bn/variance/Fused_Add_"/>
			</rt_info>
			<input>
				<port id="0" precision="FP32">
					<dim>1</dim>
					<dim>32</dim>
					<dim>128</dim>
					<dim>228</dim>
				</port>
				<port id="1" precision="FP32">
					<dim>1</dim>
					<dim>32</dim>
					<dim>1</dim>
					<dim>1</dim>
				</port>
			</input>
			<output>
				<port id="2" precision="FP32" names="conv2_1/dw">
					<dim>1</dim>
					<dim>32</dim>
					<dim>128</dim>
					<dim>228</dim>
				</port>
			</output>
		</layer>
		<layer id="20" name="relu2_1/dw" type="ReLU" version="opset1">
			<rt_info>
				<attribute name="fused_names" version="0" value="relu2_1/dw"/>
			</rt_info>
			<input>
				<port id="0" precision="FP32">
					<dim>1</dim>
					<dim>32</dim>
					<dim>128</dim>
					<dim>228</dim>
				</port>
			</input>
			<output>
				<port id="1" precision="FP32" names="conv2_1/dw">
					<dim>1</dim>
					<dim>32</dim>
					<dim>128</dim>
					<dim>228</dim>
				</port>
			</output>
		</layer>
		<layer id="21" name="conv2_1/sep/bn/mean/Fused_Mul__copy_compressed" type="Const" version="opset1">
			<data element_type="f16" shape="64, 32, 1, 1" offset="2440" size="4096"/>
			<output>
				<port id="0" precision="FP16">
					<dim>64</dim>
					<dim>32</dim>
					<dim>1</dim>
					<dim>1</dim>
				</port>
			</output>
		</layer>
		<layer id="22" name="conv2_1/sep/bn/mean/Fused_Mul__copy" type="Convert" version="opset1">
			<data destination_type="f32"/>
			<rt_info>
				<attribute name="decompression" version="0"/>
				<attribute name="fused_names" version="0" value="conv2_1/sep/bn/mean/Fused_Mul__copy"/>
			</rt_info>
			<input>
				<port id="0" precision="FP16">
					<dim>64</dim>
					<dim>32</dim>
					<dim>1</dim>
					<dim>1</dim>
				</port>
			</input>
			<output>
				<port id="1" precision="FP32">
					<dim>64</dim>
					<dim>32</dim>
					<dim>1</dim>
					<dim>1</dim>
				</port>
			</output>
		</layer>
		<layer id="23" name="conv2_1/sep" type="Convolution" version="opset1">
			<data strides="1, 1" dilations="1, 1" pads_begin="0, 0" pads_end="0, 0" auto_pad="explicit"/>
			<rt_info>
				<attribute name="fused_names" version="0" value="conv2_1/sep"/>
			</rt_info>
			<input>
				<port id="0" precision="FP32">
					<dim>1</dim>
					<dim>32</dim>
					<dim>128</dim>
					<dim>228</dim>
				</port>
				<port id="1" precision="FP32">
					<dim>64</dim>
					<dim>32</dim>
					<dim>1</dim>
					<dim>1</dim>
				</port>
			</input>
			<output>
				<port id="2" precision="FP32">
					<dim>1</dim>
					<dim>64</dim>
					<dim>128</dim>
					<dim>228</dim>
				</port>
			</output>
		</layer>
		<layer id="24" name="data_add_89488953_compressed" type="Const" version="opset1">
			<data element_type="f16" shape="1, 64, 1, 1" offset="6536" size="128"/>
			<output>
				<port id="0" precision="FP16">
					<dim>1</dim>
					<dim>64</dim>
					<dim>1</dim>
					<dim>1</dim>
				</port>
			</output>
		</layer>
		<layer id="25" name="data_add_89488953" type="Convert" version="opset1">
			<data destination_type="f32"/>
			<rt_info>
				<attribute name="decompression" version="0"/>
				<attribute name="fused_names" version="0" value="data_add_89488953"/>
			</rt_info>
			<input>
				<port id="0" precision="FP16">
					<dim>1</dim>
					<dim>64</dim>
					<dim>1</dim>
					<dim>1</dim>
				</port>
			</input>
			<output>
				<port id="1" precision="FP32">
					<dim>1</dim>
					<dim>64</dim>
					<dim>1</dim>
					<dim>1</dim>
				</port>
			</output>
		</layer>
		<layer id="26" name="conv2_1/sep/bn/variance/Fused_Add_" type="Add" version="opset1">
			<data auto_broadcast="numpy"/>
			<rt_info>
				<attribute name="fused_names" version="0" value="conv2_1/sep/bn/variance/Fused_Add_"/>
			</rt_info>
			<input>
				<port id="0" precision="FP32">
					<dim>1</dim>
					<dim>64</dim>
					<dim>128</dim>
					<dim>228</dim>
				</port>
				<port id="1" precision="FP32">
					<dim>1</dim>
					<dim>64</dim>
					<dim>1</dim>
					<dim>1</dim>
				</port>
			</input>
			<output>
				<port id="2" precision="FP32" names="conv2_1/sep">
					<dim>1</dim>
					<dim>64</dim>
					<dim>128</dim>
					<dim>228</dim>
				</port>
			</output>
		</layer>
		<layer id="27" name="relu2_1/sep" type="ReLU" version="opset1">
			<rt_info>
				<attribute name="fused_names" version="0" value="relu2_1/sep"/>
			</rt_info>
			<input>
				<port id="0" precision="FP32">
					<dim>1</dim>
					<dim>64</dim>
					<dim>128</dim>
					<dim>228</dim>
				</port>
			</input>
			<output>
				<port id="1" precision="FP32" names="conv2_1/sep">
					<dim>1</dim>
					<dim>64</dim>
					<dim>128</dim>
					<dim>228</dim>
				</port>
			</output>
		</layer>
		<layer id="28" name="conv2_2/dw/bn/mean/Fused_Mul__copy_compressed" type="Const" version="opset1">
			<data element_type="f16" shape="64, 1, 1, 3, 3" offset="6664" size="1152"/>
			<output>
				<port id="0" precision="FP16">
					<dim>64</dim>
					<dim>1</dim>
					<dim>1</dim>
					<dim>3</dim>
					<dim>3</dim>
				</port>
			</output>
		</layer>
		<layer id="29" name="conv2_2/dw/bn/mean/Fused_Mul__copy" type="Convert" version="opset1">
			<data destination_type="f32"/>
			<rt_info>
				<attribute name="decompression" version="0"/>
				<attribute name="fused_names" version="0" value="conv2_2/dw/bn/mean/Fused_Mul__copy"/>
			</rt_info>
			<input>
				<port id="0" precision="FP16">
					<dim>64</dim>
					<dim>1</dim>
					<dim>1</dim>
					<dim>3</dim>
					<dim>3</dim>
				</port>
			</input>
			<output>
				<port id="1" precision="FP32">
					<dim>64</dim>
					<dim>1</dim>
					<dim>1</dim>
					<dim>3</dim>
					<dim>3</dim>
				</port>
			</output>
		</layer>
		<layer id="30" name="conv2_2/dw" type="GroupConvolution" version="opset1">
			<data strides="2, 2" pads_begin="1, 1" pads_end="1, 1" dilations="1, 1" auto_pad="explicit"/>
			<rt_info>
				<attribute name="fused_names" version="0" value="conv2_2/dw"/>
			</rt_info>
			<input>
				<port id="0" precision="FP32">
					<dim>1</dim>
					<dim>64</dim>
					<dim>128</dim>
					<dim>228</dim>
				</port>
				<port id="1" precision="FP32">
					<dim>64</dim>
					<dim>1</dim>
					<dim>1</dim>
					<dim>3</dim>
					<dim>3</dim>
				</port>
			</input>
			<output>
				<port id="2" precision="FP32">
					<dim>1</dim>
					<dim>64</dim>
					<dim>64</dim>
					<dim>114</dim>
				</port>
			</output>
		</layer>
		<layer id="31" name="data_add_89568961_compressed" type="Const" version="opset1">
			<data element_type="f16" shape="1, 64, 1, 1" offset="7816" size="128"/>
			<output>
				<port id="0" precision="FP16">
					<dim>1</dim>
					<dim>64</dim>
					<dim>1</dim>
					<dim>1</dim>
				</port>
			</output>
		</layer>
		<layer id="32" name="data_add_89568961" type="Convert" version="opset1">
			<data destination_type="f32"/>
			<rt_info>
				<attribute name="decompression" version="0"/>
				<attribute name="fused_names" version="0" value="data_add_89568961"/>
			</rt_info>
			<input>
				<port id="0" precision="FP16">
					<dim>1</dim>
					<dim>64</dim>
					<dim>1</dim>
					<dim>1</dim>
				</port>
			</input>
			<output>
				<port id="1" precision="FP32">
					<dim>1</dim>
					<dim>64</dim>
					<dim>1</dim>
					<dim>1</dim>
				</port>
			</output>
		</layer>
		<layer id="33" name="conv2_2/dw/bn/variance/Fused_Add_" type="Add" version="opset1">
			<data auto_broadcast="numpy"/>
			<rt_info>
				<attribute name="fused_names" version="0" value="conv2_2/dw/bn/variance/Fused_Add_"/>
			</rt_info>
			<input>
				<port id="0" precision="FP32">
					<dim>1</dim>
					<dim>64</dim>
					<dim>64</dim>
					<dim>114</dim>
				</port>
				<port id="1" precision="FP32">
					<dim>1</dim>
					<dim>64</dim>
					<dim>1</dim>
					<dim>1</dim>
				</port>
			</input>
			<output>
				<port id="2" precision="FP32" names="conv2_2/dw">
					<dim>1</dim>
					<dim>64</dim>
					<dim>64</dim>
					<dim>114</dim>
				</port>
			</output>
		</layer>
		<layer id="34" name="relu2_2/dw" type="ReLU" version="opset1">
			<rt_info>
				<attribute name="fused_names" version="0" value="relu2_2/dw"/>
			</rt_info>
			<input>
				<port id="0" precision="FP32">
					<dim>1</dim>
					<dim>64</dim>
					<dim>64</dim>
					<dim>114</dim>
				</port>
			</input>
			<output>
				<port id="1" precision="FP32" names="conv2_2/dw">
					<dim>1</dim>
					<dim>64</dim>
					<dim>64</dim>
					<dim>114</dim>
				</port>
			</output>
		</layer>
		<layer id="35" name="conv2_2/sep/bn/mean/Fused_Mul__copy_compressed" type="Const" version="opset1">
			<data element_type="f16" shape="128, 64, 1, 1" offset="7944" size="16384"/>
			<output>
				<port id="0" precision="FP16">
					<dim>128</dim>
					<dim>64</dim>
					<dim>1</dim>
					<dim>1</dim>
				</port>
			</output>
		</layer>
		<layer id="36" name="conv2_2/sep/bn/mean/Fused_Mul__copy" type="Convert" version="opset1">
			<data destination_type="f32"/>
			<rt_info>
				<attribute name="decompression" version="0"/>
				<attribute name="fused_names" version="0" value="conv2_2/sep/bn/mean/Fused_Mul__copy"/>
			</rt_info>
			<input>
				<port id="0" precision="FP16">
					<dim>128</dim>
					<dim>64</dim>
					<dim>1</dim>
					<dim>1</dim>
				</port>
			</input>
			<output>
				<port id="1" precision="FP32">
					<dim>128</dim>
					<dim>64</dim>
					<dim>1</dim>
					<dim>1</dim>
				</port>
			</output>
		</layer>
		<layer id="37" name="conv2_2/sep" type="Convolution" version="opset1">
			<data strides="1, 1" dilations="1, 1" pads_begin="0, 0" pads_end="0, 0" auto_pad="explicit"/>
			<rt_info>
				<attribute name="fused_names" version="0" value="conv2_2/sep"/>
			</rt_info>
			<input>
				<port id="0" precision="FP32">
					<dim>1</dim>
					<dim>64</dim>
					<dim>64</dim>
					<dim>114</dim>
				</port>
				<port id="1" precision="FP32">
					<dim>128</dim>
					<dim>64</dim>
					<dim>1</dim>
					<dim>1</dim>
				</port>
			</input>
			<output>
				<port id="2" precision="FP32">
					<dim>1</dim>
					<dim>128</dim>
					<dim>64</dim>
					<dim>114</dim>
				</port>
			</output>
		</layer>
		<layer id="38" name="data_add_89648969_compressed" type="Const" version="opset1">
			<data element_type="f16" shape="1, 128, 1, 1" offset="24328" size="256"/>
			<output>
				<port id="0" precision="FP16">
					<dim>1</dim>
					<dim>128</dim>
					<dim>1</dim>
					<dim>1</dim>
				</port>
			</output>
		</layer>
		<layer id="39" name="data_add_89648969" type="Convert" version="opset1">
			<data destination_type="f32"/>
			<rt_info>
				<attribute name="decompression" version="0"/>
				<attribute name="fused_names" version="0" value="data_add_89648969"/>
			</rt_info>
			<input>
				<port id="0" precision="FP16">
					<dim>1</dim>
					<dim>128</dim>
					<dim>1</dim>
					<dim>1</dim>
				</port>
			</input>
			<output>
				<port id="1" precision="FP32">
					<dim>1</dim>
					<dim>128</dim>
					<dim>1</dim>
					<dim>1</dim>
				</port>
			</output>
		</layer>
		<layer id="40" name="conv2_2/sep/bn/variance/Fused_Add_" type="Add" version="opset1">
			<data auto_broadcast="numpy"/>
			<rt_info>
				<attribute name="fused_names" version="0" value="conv2_2/sep/bn/variance/Fused_Add_"/>
			</rt_info>
			<input>
				<port id="0" precision="FP32">
					<dim>1</dim>
					<dim>128</dim>
					<dim>64</dim>
					<dim>114</dim>
				</port>
				<port id="1" precision="FP32">
					<dim>1</dim>
					<dim>128</dim>
					<dim>1</dim>
					<dim>1</dim>
				</port>
			</input>
			<output>
				<port id="2" precision="FP32" names="conv2_2/sep">
					<dim>1</dim>
					<dim>128</dim>
					<dim>64</dim>
					<dim>114</dim>
				</port>
			</output>
		</layer>
		<layer id="41" name="relu2_2/sep" type="ReLU" version="opset1">
			<rt_info>
				<attribute name="fused_names" version="0" value="relu2_2/sep"/>
			</rt_info>
			<input>
				<port id="0" precision="FP32">
					<dim>1</dim>
					<dim>128</dim>
					<dim>64</dim>
					<dim>114</dim>
				</port>
			</input>
			<output>
				<port id="1" precision="FP32" names="conv2_2/sep">
					<dim>1</dim>
					<dim>128</dim>
					<dim>64</dim>
					<dim>114</dim>
				</port>
			</output>
		</layer>
		<layer id="42" name="conv3_1/dw/bn/mean/Fused_Mul__copy_compressed" type="Const" version="opset1">
			<data element_type="f16" shape="128, 1, 1, 3, 3" offset="24584" size="2304"/>
			<output>
				<port id="0" precision="FP16">
					<dim>128</dim>
					<dim>1</dim>
					<dim>1</dim>
					<dim>3</dim>
					<dim>3</dim>
				</port>
			</output>
		</layer>
		<layer id="43" name="conv3_1/dw/bn/mean/Fused_Mul__copy" type="Convert" version="opset1">
			<data destination_type="f32"/>
			<rt_info>
				<attribute name="decompression" version="0"/>
				<attribute name="fused_names" version="0" value="conv3_1/dw/bn/mean/Fused_Mul__copy"/>
			</rt_info>
			<input>
				<port id="0" precision="FP16">
					<dim>128</dim>
					<dim>1</dim>
					<dim>1</dim>
					<dim>3</dim>
					<dim>3</dim>
				</port>
			</input>
			<output>
				<port id="1" precision="FP32">
					<dim>128</dim>
					<dim>1</dim>
					<dim>1</dim>
					<dim>3</dim>
					<dim>3</dim>
				</port>
			</output>
		</layer>
		<layer id="44" name="conv3_1/dw" type="GroupConvolution" version="opset1">
			<data strides="1, 1" pads_begin="1, 1" pads_end="1, 1" dilations="1, 1" auto_pad="explicit"/>
			<rt_info>
				<attribute name="fused_names" version="0" value="conv3_1/dw"/>
			</rt_info>
			<input>
				<port id="0" precision="FP32">
					<dim>1</dim>
					<dim>128</dim>
					<dim>64</dim>
					<dim>114</dim>
				</port>
				<port id="1" precision="FP32">
					<dim>128</dim>
					<dim>1</dim>
					<dim>1</dim>
					<dim>3</dim>
					<dim>3</dim>
				</port>
			</input>
			<output>
				<port id="2" precision="FP32">
					<dim>1</dim>
					<dim>128</dim>
					<dim>64</dim>
					<dim>114</dim>
				</port>
			</output>
		</layer>
		<layer id="45" name="data_add_89728977_compressed" type="Const" version="opset1">
			<data element_type="f16" shape="1, 128, 1, 1" offset="26888" size="256"/>
			<output>
				<port id="0" precision="FP16">
					<dim>1</dim>
					<dim>128</dim>
					<dim>1</dim>
					<dim>1</dim>
				</port>
			</output>
		</layer>
		<layer id="46" name="data_add_89728977" type="Convert" version="opset1">
			<data destination_type="f32"/>
			<rt_info>
				<attribute name="decompression" version="0"/>
				<attribute name="fused_names" version="0" value="data_add_89728977"/>
			</rt_info>
			<input>
				<port id="0" precision="FP16">
					<dim>1</dim>
					<dim>128</dim>
					<dim>1</dim>
					<dim>1</dim>
				</port>
			</input>
			<output>
				<port id="1" precision="FP32">
					<dim>1</dim>
					<dim>128</dim>
					<dim>1</dim>
					<dim>1</dim>
				</port>
			</output>
		</layer>
		<layer id="47" name="conv3_1/dw/bn/variance/Fused_Add_" type="Add" version="opset1">
			<data auto_broadcast="numpy"/>
			<rt_info>
				<attribute name="fused_names" version="0" value="conv3_1/dw/bn/variance/Fused_Add_"/>
			</rt_info>
			<input>
				<port id="0" precision="FP32">
					<dim>1</dim>
					<dim>128</dim>
					<dim>64</dim>
					<dim>114</dim>
				</port>
				<port id="1" precision="FP32">
					<dim>1</dim>
					<dim>128</dim>
					<dim>1</dim>
					<dim>1</dim>
				</port>
			</input>
			<output>
				<port id="2" precision="FP32" names="conv3_1/dw">
					<dim>1</dim>
					<dim>128</dim>
					<dim>64</dim>
					<dim>114</dim>
				</port>
			</output>
		</layer>
		<layer id="48" name="relu3_1/dw" type="ReLU" version="opset1">
			<rt_info>
				<attribute name="fused_names" version="0" value="relu3_1/dw"/>
			</rt_info>
			<input>
				<port id="0" precision="FP32">
					<dim>1</dim>
					<dim>128</dim>
					<dim>64</dim>
					<dim>114</dim>
				</port>
			</input>
			<output>
				<port id="1" precision="FP32" names="conv3_1/dw">
					<dim>1</dim>
					<dim>128</dim>
					<dim>64</dim>
					<dim>114</dim>
				</port>
			</output>
		</layer>
		<layer id="49" name="conv3_1/sep/bn/mean/Fused_Mul__copy_compressed" type="Const" version="opset1">
			<data element_type="f16" shape="128, 128, 1, 1" offset="27144" size="32768"/>
			<output>
				<port id="0" precision="FP16">
					<dim>128</dim>
					<dim>128</dim>
					<dim>1</dim>
					<dim>1</dim>
				</port>
			</output>
		</layer>
		<layer id="50" name="conv3_1/sep/bn/mean/Fused_Mul__copy" type="Convert" version="opset1">
			<data destination_type="f32"/>
			<rt_info>
				<attribute name="decompression" version="0"/>
				<attribute name="fused_names" version="0" value="conv3_1/sep/bn/mean/Fused_Mul__copy"/>
			</rt_info>
			<input>
				<port id="0" precision="FP16">
					<dim>128</dim>
					<dim>128</dim>
					<dim>1</dim>
					<dim>1</dim>
				</port>
			</input>
			<output>
				<port id="1" precision="FP32">
					<dim>128</dim>
					<dim>128</dim>
					<dim>1</dim>
					<dim>1</dim>
				</port>
			</output>
		</layer>
		<layer id="51" name="conv3_1/sep" type="Convolution" version="opset1">
			<data strides="1, 1" dilations="1, 1" pads_begin="0, 0" pads_end="0, 0" auto_pad="explicit"/>
			<rt_info>
				<attribute name="fused_names" version="0" value="conv3_1/sep"/>
			</rt_info>
			<input>
				<port id="0" precision="FP32">
					<dim>1</dim>
					<dim>128</dim>
					<dim>64</dim>
					<dim>114</dim>
				</port>
				<port id="1" precision="FP32">
					<dim>128</dim>
					<dim>128</dim>
					<dim>1</dim>
					<dim>1</dim>
				</port>
			</input>
			<output>
				<port id="2" precision="FP32">
					<dim>1</dim>
					<dim>128</dim>
					<dim>64</dim>
					<dim>114</dim>
				</port>
			</output>
		</layer>
		<layer id="52" name="data_add_89808985_compressed" type="Const" version="opset1">
			<data element_type="f16" shape="1, 128, 1, 1" offset="59912" size="256"/>
			<output>
				<port id="0" precision="FP16">
					<dim>1</dim>
					<dim>128</dim>
					<dim>1</dim>
					<dim>1</dim>
				</port>
			</output>
		</layer>
		<layer id="53" name="data_add_89808985" type="Convert" version="opset1">
			<data destination_type="f32"/>
			<rt_info>
				<attribute name="decompression" version="0"/>
				<attribute name="fused_names" version="0" value="data_add_89808985"/>
			</rt_info>
			<input>
				<port id="0" precision="FP16">
					<dim>1</dim>
					<dim>128</dim>
					<dim>1</dim>
					<dim>1</dim>
				</port>
			</input>
			<output>
				<port id="1" precision="FP32">
					<dim>1</dim>
					<dim>128</dim>
					<dim>1</dim>
					<dim>1</dim>
				</port>
			</output>
		</layer>
		<layer id="54" name="conv3_1/sep/bn/variance/Fused_Add_" type="Add" version="opset1">
			<data auto_broadcast="numpy"/>
			<rt_info>
				<attribute name="fused_names" version="0" value="conv3_1/sep/bn/variance/Fused_Add_"/>
			</rt_info>
			<input>
				<port id="0" precision="FP32">
					<dim>1</dim>
					<dim>128</dim>
					<dim>64</dim>
					<dim>114</dim>
				</port>
				<port id="1" precision="FP32">
					<dim>1</dim>
					<dim>128</dim>
					<dim>1</dim>
					<dim>1</dim>
				</port>
			</input>
			<output>
				<port id="2" precision="FP32" names="conv3_1/sep">
					<dim>1</dim>
					<dim>128</dim>
					<dim>64</dim>
					<dim>114</dim>
				</port>
			</output>
		</layer>
		<layer id="55" name="relu3_1/sep" type="ReLU" version="opset1">
			<rt_info>
				<attribute name="fused_names" version="0" value="relu3_1/sep"/>
			</rt_info>
			<input>
				<port id="0" precision="FP32">
					<dim>1</dim>
					<dim>128</dim>
					<dim>64</dim>
					<dim>114</dim>
				</port>
			</input>
			<output>
				<port id="1" precision="FP32" names="conv3_1/sep">
					<dim>1</dim>
					<dim>128</dim>
					<dim>64</dim>
					<dim>114</dim>
				</port>
			</output>
		</layer>
		<layer id="56" name="conv3_2/dw/bn/mean/Fused_Mul__copy_compressed" type="Const" version="opset1">
			<data element_type="f16" shape="128, 1, 1, 3, 3" offset="60168" size="2304"/>
			<output>
				<port id="0" precision="FP16">
					<dim>128</dim>
					<dim>1</dim>
					<dim>1</dim>
					<dim>3</dim>
					<dim>3</dim>
				</port>
			</output>
		</layer>
		<layer id="57" name="conv3_2/dw/bn/mean/Fused_Mul__copy" type="Convert" version="opset1">
			<data destination_type="f32"/>
			<rt_info>
				<attribute name="decompression" version="0"/>
				<attribute name="fused_names" version="0" value="conv3_2/dw/bn/mean/Fused_Mul__copy"/>
			</rt_info>
			<input>
				<port id="0" precision="FP16">
					<dim>128</dim>
					<dim>1</dim>
					<dim>1</dim>
					<dim>3</dim>
					<dim>3</dim>
				</port>
			</input>
			<output>
				<port id="1" precision="FP32">
					<dim>128</dim>
					<dim>1</dim>
					<dim>1</dim>
					<dim>3</dim>
					<dim>3</dim>
				</port>
			</output>
		</layer>
		<layer id="58" name="conv3_2/dw" type="GroupConvolution" version="opset1">
			<data strides="2, 2" pads_begin="1, 1" pads_end="1, 1" dilations="1, 1" auto_pad="explicit"/>
			<rt_info>
				<attribute name="fused_names" version="0" value="conv3_2/dw"/>
			</rt_info>
			<input>
				<port id="0" precision="FP32">
					<dim>1</dim>
					<dim>128</dim>
					<dim>64</dim>
					<dim>114</dim>
				</port>
				<port id="1" precision="FP32">
					<dim>128</dim>
					<dim>1</dim>
					<dim>1</dim>
					<dim>3</dim>
					<dim>3</dim>
				</port>
			</input>
			<output>
				<port id="2" precision="FP32">
					<dim>1</dim>
					<dim>128</dim>
					<dim>32</dim>
					<dim>57</dim>
				</port>
			</output>
		</layer>
		<layer id="59" name="data_add_89888993_compressed" type="Const" version="opset1">
			<data element_type="f16" shape="1, 128, 1, 1" offset="62472" size="256"/>
			<output>
				<port id="0" precision="FP16">
					<dim>1</dim>
					<dim>128</dim>
					<dim>1</dim>
					<dim>1</dim>
				</port>
			</output>
		</layer>
		<layer id="60" name="data_add_89888993" type="Convert" version="opset1">
			<data destination_type="f32"/>
			<rt_info>
				<attribute name="decompression" version="0"/>
				<attribute name="fused_names" version="0" value="data_add_89888993"/>
			</rt_info>
			<input>
				<port id="0" precision="FP16">
					<dim>1</dim>
					<dim>128</dim>
					<dim>1</dim>
					<dim>1</dim>
				</port>
			</input>
			<output>
				<port id="1" precision="FP32">
					<dim>1</dim>
					<dim>128</dim>
					<dim>1</dim>
					<dim>1</dim>
				</port>
			</output>
		</layer>
		<layer id="61" name="conv3_2/dw/bn/variance/Fused_Add_" type="Add" version="opset1">
			<data auto_broadcast="numpy"/>
			<rt_info>
				<attribute name="fused_names" version="0" value="conv3_2/dw/bn/variance/Fused_Add_"/>
			</rt_info>
			<input>
				<port id="0" precision="FP32">
					<dim>1</dim>
					<dim>128</dim>
					<dim>32</dim>
					<dim>57</dim>
				</port>
				<port id="1" precision="FP32">
					<dim>1</dim>
					<dim>128</dim>
					<dim>1</dim>
					<dim>1</dim>
				</port>
			</input>
			<output>
				<port id="2" precision="FP32" names="conv3_2/dw">
					<dim>1</dim>
					<dim>128</dim>
					<dim>32</dim>
					<dim>57</dim>
				</port>
			</output>
		</layer>
		<layer id="62" name="relu3_2/dw" type="ReLU" version="opset1">
			<rt_info>
				<attribute name="fused_names" version="0" value="relu3_2/dw"/>
			</rt_info>
			<input>
				<port id="0" precision="FP32">
					<dim>1</dim>
					<dim>128</dim>
					<dim>32</dim>
					<dim>57</dim>
				</port>
			</input>
			<output>
				<port id="1" precision="FP32" names="conv3_2/dw">
					<dim>1</dim>
					<dim>128</dim>
					<dim>32</dim>
					<dim>57</dim>
				</port>
			</output>
		</layer>
		<layer id="63" name="conv3_2/sep/bn/mean/Fused_Mul__copy_compressed" type="Const" version="opset1">
			<data element_type="f16" shape="256, 128, 1, 1" offset="62728" size="65536"/>
			<output>
				<port id="0" precision="FP16">
					<dim>256</dim>
					<dim>128</dim>
					<dim>1</dim>
					<dim>1</dim>
				</port>
			</output>
		</layer>
		<layer id="64" name="conv3_2/sep/bn/mean/Fused_Mul__copy" type="Convert" version="opset1">
			<data destination_type="f32"/>
			<rt_info>
				<attribute name="decompression" version="0"/>
				<attribute name="fused_names" version="0" value="conv3_2/sep/bn/mean/Fused_Mul__copy"/>
			</rt_info>
			<input>
				<port id="0" precision="FP16">
					<dim>256</dim>
					<dim>128</dim>
					<dim>1</dim>
					<dim>1</dim>
				</port>
			</input>
			<output>
				<port id="1" precision="FP32">
					<dim>256</dim>
					<dim>128</dim>
					<dim>1</dim>
					<dim>1</dim>
				</port>
			</output>
		</layer>
		<layer id="65" name="conv3_2/sep" type="Convolution" version="opset1">
			<data strides="1, 1" dilations="1, 1" pads_begin="0, 0" pads_end="0, 0" auto_pad="explicit"/>
			<rt_info>
				<attribute name="fused_names" version="0" value="conv3_2/sep"/>
			</rt_info>
			<input>
				<port id="0" precision="FP32">
					<dim>1</dim>
					<dim>128</dim>
					<dim>32</dim>
					<dim>57</dim>
				</port>
				<port id="1" precision="FP32">
					<dim>256</dim>
					<dim>128</dim>
					<dim>1</dim>
					<dim>1</dim>
				</port>
			</input>
			<output>
				<port id="2" precision="FP32">
					<dim>1</dim>
					<dim>256</dim>
					<dim>32</dim>
					<dim>57</dim>
				</port>
			</output>
		</layer>
		<layer id="66" name="data_add_89969001_compressed" type="Const" version="opset1">
			<data element_type="f16" shape="1, 256, 1, 1" offset="128264" size="512"/>
			<output>
				<port id="0" precision="FP16">
					<dim>1</dim>
					<dim>256</dim>
					<dim>1</dim>
					<dim>1</dim>
				</port>
			</output>
		</layer>
		<layer id="67" name="data_add_89969001" type="Convert" version="opset1">
			<data destination_type="f32"/>
			<rt_info>
				<attribute name="decompression" version="0"/>
				<attribute name="fused_names" version="0" value="data_add_89969001"/>
			</rt_info>
			<input>
				<port id="0" precision="FP16">
					<dim>1</dim>
					<dim>256</dim>
					<dim>1</dim>
					<dim>1</dim>
				</port>
			</input>
			<output>
				<port id="1" precision="FP32">
					<dim>1</dim>
					<dim>256</dim>
					<dim>1</dim>
					<dim>1</dim>
				</port>
			</output>
		</layer>
		<layer id="68" name="conv3_2/sep/bn/variance/Fused_Add_" type="Add" version="opset1">
			<data auto_broadcast="numpy"/>
			<rt_info>
				<attribute name="fused_names" version="0" value="conv3_2/sep/bn/variance/Fused_Add_"/>
			</rt_info>
			<input>
				<port id="0" precision="FP32">
					<dim>1</dim>
					<dim>256</dim>
					<dim>32</dim>
					<dim>57</dim>
				</port>
				<port id="1" precision="FP32">
					<dim>1</dim>
					<dim>256</dim>
					<dim>1</dim>
					<dim>1</dim>
				</port>
			</input>
			<output>
				<port id="2" precision="FP32" names="conv3_2/sep">
					<dim>1</dim>
					<dim>256</dim>
					<dim>32</dim>
					<dim>57</dim>
				</port>
			</output>
		</layer>
		<layer id="69" name="relu3_2/sep" type="ReLU" version="opset1">
			<rt_info>
				<attribute name="fused_names" version="0" value="relu3_2/sep"/>
			</rt_info>
			<input>
				<port id="0" precision="FP32">
					<dim>1</dim>
					<dim>256</dim>
					<dim>32</dim>
					<dim>57</dim>
				</port>
			</input>
			<output>
				<port id="1" precision="FP32" names="conv3_2/sep">
					<dim>1</dim>
					<dim>256</dim>
					<dim>32</dim>
					<dim>57</dim>
				</port>
			</output>
		</layer>
		<layer id="70" name="conv4_1/dw/bn/mean/Fused_Mul__copy_compressed" type="Const" version="opset1">
			<data element_type="f16" shape="256, 1, 1, 3, 3" offset="128776" size="4608"/>
			<output>
				<port id="0" precision="FP16">
					<dim>256</dim>
					<dim>1</dim>
					<dim>1</dim>
					<dim>3</dim>
					<dim>3</dim>
				</port>
			</output>
		</layer>
		<layer id="71" name="conv4_1/dw/bn/mean/Fused_Mul__copy" type="Convert" version="opset1">
			<data destination_type="f32"/>
			<rt_info>
				<attribute name="decompression" version="0"/>
				<attribute name="fused_names" version="0" value="conv4_1/dw/bn/mean/Fused_Mul__copy"/>
			</rt_info>
			<input>
				<port id="0" precision="FP16">
					<dim>256</dim>
					<dim>1</dim>
					<dim>1</dim>
					<dim>3</dim>
					<dim>3</dim>
				</port>
			</input>
			<output>
				<port id="1" precision="FP32">
					<dim>256</dim>
					<dim>1</dim>
					<dim>1</dim>
					<dim>3</dim>
					<dim>3</dim>
				</port>
			</output>
		</layer>
		<layer id="72" name="conv4_1/dw" type="GroupConvolution" version="opset1">
			<data strides="1, 1" pads_begin="1, 1" pads_end="1, 1" dilations="1, 1" auto_pad="explicit"/>
			<rt_info>
				<attribute name="fused_names" version="0" value="conv4_1/dw"/>
			</rt_info>
			<input>
				<port id="0" precision="FP32">
					<dim>1</dim>
					<dim>256</dim>
					<dim>32</dim>
					<dim>57</dim>
				</port>
				<port id="1" precision="FP32">
					<dim>256</dim>
					<dim>1</dim>
					<dim>1</dim>
					<dim>3</dim>
					<dim>3</dim>
				</port>
			</input>
			<output>
				<port id="2" precision="FP32">
					<dim>1</dim>
					<dim>256</dim>
					<dim>32</dim>
					<dim>57</dim>
				</port>
			</output>
		</layer>
		<layer id="73" name="data_add_90049009_compressed" type="Const" version="opset1">
			<data element_type="f16" shape="1, 256, 1, 1" offset="133384" size="512"/>
			<output>
				<port id="0" precision="FP16">
					<dim>1</dim>
					<dim>256</dim>
					<dim>1</dim>
					<dim>1</dim>
				</port>
			</output>
		</layer>
		<layer id="74" name="data_add_90049009" type="Convert" version="opset1">
			<data destination_type="f32"/>
			<rt_info>
				<attribute name="decompression" version="0"/>
				<attribute name="fused_names" version="0" value="data_add_90049009"/>
			</rt_info>
			<input>
				<port id="0" precision="FP16">
					<dim>1</dim>
					<dim>256</dim>
					<dim>1</dim>
					<dim>1</dim>
				</port>
			</input>
			<output>
				<port id="1" precision="FP32">
					<dim>1</dim>
					<dim>256</dim>
					<dim>1</dim>
					<dim>1</dim>
				</port>
			</output>
		</layer>
		<layer id="75" name="conv4_1/dw/bn/variance/Fused_Add_" type="Add" version="opset1">
			<data auto_broadcast="numpy"/>
			<rt_info>
				<attribute name="fused_names" version="0" value="conv4_1/dw/bn/variance/Fused_Add_"/>
			</rt_info>
			<input>
				<port id="0" precision="FP32">
					<dim>1</dim>
					<dim>256</dim>
					<dim>32</dim>
					<dim>57</dim>
				</port>
				<port id="1" precision="FP32">
					<dim>1</dim>
					<dim>256</dim>
					<dim>1</dim>
					<dim>1</dim>
				</port>
			</input>
			<output>
				<port id="2" precision="FP32" names="conv4_1/dw">
					<dim>1</dim>
					<dim>256</dim>
					<dim>32</dim>
					<dim>57</dim>
				</port>
			</output>
		</layer>
		<layer id="76" name="relu4_1/dw" type="ReLU" version="opset1">
			<rt_info>
				<attribute name="fused_names" version="0" value="relu4_1/dw"/>
			</rt_info>
			<input>
				<port id="0" precision="FP32">
					<dim>1</dim>
					<dim>256</dim>
					<dim>32</dim>
					<dim>57</dim>
				</port>
			</input>
			<output>
				<port id="1" precision="FP32" names="conv4_1/dw">
					<dim>1</dim>
					<dim>256</dim>
					<dim>32</dim>
					<dim>57</dim>
				</port>
			</output>
		</layer>
		<layer id="77" name="conv4_1/sep/bn/mean/Fused_Mul__copy_compressed" type="Const" version="opset1">
			<data element_type="f16" shape="256, 256, 1, 1" offset="133896" size="131072"/>
			<output>
				<port id="0" precision="FP16">
					<dim>256</dim>
					<dim>256</dim>
					<dim>1</dim>
					<dim>1</dim>
				</port>
			</output>
		</layer>
		<layer id="78" name="conv4_1/sep/bn/mean/Fused_Mul__copy" type="Convert" version="opset1">
			<data destination_type="f32"/>
			<rt_info>
				<attribute name="decompression" version="0"/>
				<attribute name="fused_names" version="0" value="conv4_1/sep/bn/mean/Fused_Mul__copy"/>
			</rt_info>
			<input>
				<port id="0" precision="FP16">
					<dim>256</dim>
					<dim>256</dim>
					<dim>1</dim>
					<dim>1</dim>
				</port>
			</input>
			<output>
				<port id="1" precision="FP32">
					<dim>256</dim>
					<dim>256</dim>
					<dim>1</dim>
					<dim>1</dim>
				</port>
			</output>
		</layer>
		<layer id="79" name="conv4_1/sep" type="Convolution" version="opset1">
			<data strides="1, 1" dilations="1, 1" pads_begin="0, 0" pads_end="0, 0" auto_pad="explicit"/>
			<rt_info>
				<attribute name="fused_names" version="0" value="conv4_1/sep"/>
			</rt_info>
			<input>
				<port id="0" precision="FP32">
					<dim>1</dim>
					<dim>256</dim>
					<dim>32</dim>
					<dim>57</dim>
				</port>
				<port id="1" precision="FP32">
					<dim>256</dim>
					<dim>256</dim>
					<dim>1</dim>
					<dim>1</dim>
				</port>
			</input>
			<output>
				<port id="2" precision="FP32">
					<dim>1</dim>
					<dim>256</dim>
					<dim>32</dim>
					<dim>57</dim>
				</port>
			</output>
		</layer>
		<layer id="80" name="data_add_90129017_compressed" type="Const" version="opset1">
			<data element_type="f16" shape="1, 256, 1, 1" offset="264968" size="512"/>
			<output>
				<port id="0" precision="FP16">
					<dim>1</dim>
					<dim>256</dim>
					<dim>1</dim>
					<dim>1</dim>
				</port>
			</output>
		</layer>
		<layer id="81" name="data_add_90129017" type="Convert" version="opset1">
			<data destination_type="f32"/>
			<rt_info>
				<attribute name="decompression" version="0"/>
				<attribute name="fused_names" version="0" value="data_add_90129017"/>
			</rt_info>
			<input>
				<port id="0" precision="FP16">
					<dim>1</dim>
					<dim>256</dim>
					<dim>1</dim>
					<dim>1</dim>
				</port>
			</input>
			<output>
				<port id="1" precision="FP32">
					<dim>1</dim>
					<dim>256</dim>
					<dim>1</dim>
					<dim>1</dim>
				</port>
			</output>
		</layer>
		<layer id="82" name="conv4_1/sep/bn/variance/Fused_Add_" type="Add" version="opset1">
			<data auto_broadcast="numpy"/>
			<rt_info>
				<attribute name="fused_names" version="0" value="conv4_1/sep/bn/variance/Fused_Add_"/>
			</rt_info>
			<input>
				<port id="0" precision="FP32">
					<dim>1</dim>
					<dim>256</dim>
					<dim>32</dim>
					<dim>57</dim>
				</port>
				<port id="1" precision="FP32">
					<dim>1</dim>
					<dim>256</dim>
					<dim>1</dim>
					<dim>1</dim>
				</port>
			</input>
			<output>
				<port id="2" precision="FP32" names="conv4_1/sep">
					<dim>1</dim>
					<dim>256</dim>
					<dim>32</dim>
					<dim>57</dim>
				</port>
			</output>
		</layer>
		<layer id="83" name="relu4_1/sep" type="ReLU" version="opset1">
			<rt_info>
				<attribute name="fused_names" version="0" value="relu4_1/sep"/>
			</rt_info>
			<input>
				<port id="0" precision="FP32">
					<dim>1</dim>
					<dim>256</dim>
					<dim>32</dim>
					<dim>57</dim>
				</port>
			</input>
			<output>
				<port id="1" precision="FP32" names="conv4_1/sep">
					<dim>1</dim>
					<dim>256</dim>
					<dim>32</dim>
					<dim>57</dim>
				</port>
			</output>
		</layer>
		<layer id="84" name="conv4_2/dw/bn/mean/Fused_Mul__copy_compressed" type="Const" version="opset1">
			<data element_type="f16" shape="256, 1, 1, 3, 3" offset="265480" size="4608"/>
			<output>
				<port id="0" precision="FP16">
					<dim>256</dim>
					<dim>1</dim>
					<dim>1</dim>
					<dim>3</dim>
					<dim>3</dim>
				</port>
			</output>
		</layer>
		<layer id="85" name="conv4_2/dw/bn/mean/Fused_Mul__copy" type="Convert" version="opset1">
			<data destination_type="f32"/>
			<rt_info>
				<attribute name="decompression" version="0"/>
				<attribute name="fused_names" version="0" value="conv4_2/dw/bn/mean/Fused_Mul__copy"/>
			</rt_info>
			<input>
				<port id="0" precision="FP16">
					<dim>256</dim>
					<dim>1</dim>
					<dim>1</dim>
					<dim>3</dim>
					<dim>3</dim>
				</port>
			</input>
			<output>
				<port id="1" precision="FP32">
					<dim>256</dim>
					<dim>1</dim>
					<dim>1</dim>
					<dim>3</dim>
					<dim>3</dim>
				</port>
			</output>
		</layer>
		<layer id="86" name="conv4_2/dw" type="GroupConvolution" version="opset1">
			<data strides="1, 1" pads_begin="1, 1" pads_end="1, 1" dilations="1, 1" auto_pad="explicit"/>
			<rt_info>
				<attribute name="fused_names" version="0" value="conv4_2/dw"/>
			</rt_info>
			<input>
				<port id="0" precision="FP32">
					<dim>1</dim>
					<dim>256</dim>
					<dim>32</dim>
					<dim>57</dim>
				</port>
				<port id="1" precision="FP32">
					<dim>256</dim>
					<dim>1</dim>
					<dim>1</dim>
					<dim>3</dim>
					<dim>3</dim>
				</port>
			</input>
			<output>
				<port id="2" precision="FP32">
					<dim>1</dim>
					<dim>256</dim>
					<dim>32</dim>
					<dim>57</dim>
				</port>
			</output>
		</layer>
		<layer id="87" name="data_add_90209025_compressed" type="Const" version="opset1">
			<data element_type="f16" shape="1, 256, 1, 1" offset="270088" size="512"/>
			<output>
				<port id="0" precision="FP16">
					<dim>1</dim>
					<dim>256</dim>
					<dim>1</dim>
					<dim>1</dim>
				</port>
			</output>
		</layer>
		<layer id="88" name="data_add_90209025" type="Convert" version="opset1">
			<data destination_type="f32"/>
			<rt_info>
				<attribute name="decompression" version="0"/>
				<attribute name="fused_names" version="0" value="data_add_90209025"/>
			</rt_info>
			<input>
				<port id="0" precision="FP16">
					<dim>1</dim>
					<dim>256</dim>
					<dim>1</dim>
					<dim>1</dim>
				</port>
			</input>
			<output>
				<port id="1" precision="FP32">
					<dim>1</dim>
					<dim>256</dim>
					<dim>1</dim>
					<dim>1</dim>
				</port>
			</output>
		</layer>
		<layer id="89" name="conv4_2/dw/bn/variance/Fused_Add_" type="Add" version="opset1">
			<data auto_broadcast="numpy"/>
			<rt_info>
				<attribute name="fused_names" version="0" value="conv4_2/dw/bn/variance/Fused_Add_"/>
			</rt_info>
			<input>
				<port id="0" precision="FP32">
					<dim>1</dim>
					<dim>256</dim>
					<dim>32</dim>
					<dim>57</dim>
				</port>
				<port id="1" precision="FP32">
					<dim>1</dim>
					<dim>256</dim>
					<dim>1</dim>
					<dim>1</dim>
				</port>
			</input>
			<output>
				<port id="2" precision="FP32" names="conv4_2/dw">
					<dim>1</dim>
					<dim>256</dim>
					<dim>32</dim>
					<dim>57</dim>
				</port>
			</output>
		</layer>
		<layer id="90" name="relu4_2/dw" type="ReLU" version="opset1">
			<rt_info>
				<attribute name="fused_names" version="0" value="relu4_2/dw"/>
			</rt_info>
			<input>
				<port id="0" precision="FP32">
					<dim>1</dim>
					<dim>256</dim>
					<dim>32</dim>
					<dim>57</dim>
				</port>
			</input>
			<output>
				<port id="1" precision="FP32" names="conv4_2/dw">
					<dim>1</dim>
					<dim>256</dim>
					<dim>32</dim>
					<dim>57</dim>
				</port>
			</output>
		</layer>
		<layer id="91" name="conv4_2/sep/bn/mean/Fused_Mul__copy_compressed" type="Const" version="opset1">
			<data element_type="f16" shape="512, 256, 1, 1" offset="270600" size="262144"/>
			<output>
				<port id="0" precision="FP16">
					<dim>512</dim>
					<dim>256</dim>
					<dim>1</dim>
					<dim>1</dim>
				</port>
			</output>
		</layer>
		<layer id="92" name="conv4_2/sep/bn/mean/Fused_Mul__copy" type="Convert" version="opset1">
			<data destination_type="f32"/>
			<rt_info>
				<attribute name="decompression" version="0"/>
				<attribute name="fused_names" version="0" value="conv4_2/sep/bn/mean/Fused_Mul__copy"/>
			</rt_info>
			<input>
				<port id="0" precision="FP16">
					<dim>512</dim>
					<dim>256</dim>
					<dim>1</dim>
					<dim>1</dim>
				</port>
			</input>
			<output>
				<port id="1" precision="FP32">
					<dim>512</dim>
					<dim>256</dim>
					<dim>1</dim>
					<dim>1</dim>
				</port>
			</output>
		</layer>
		<layer id="93" name="conv4_2/sep" type="Convolution" version="opset1">
			<data strides="1, 1" dilations="1, 1" pads_begin="0, 0" pads_end="0, 0" auto_pad="explicit"/>
			<rt_info>
				<attribute name="fused_names" version="0" value="conv4_2/sep"/>
			</rt_info>
			<input>
				<port id="0" precision="FP32">
					<dim>1</dim>
					<dim>256</dim>
					<dim>32</dim>
					<dim>57</dim>
				</port>
				<port id="1" precision="FP32">
					<dim>512</dim>
					<dim>256</dim>
					<dim>1</dim>
					<dim>1</dim>
				</port>
			</input>
			<output>
				<port id="2" precision="FP32">
					<dim>1</dim>
					<dim>512</dim>
					<dim>32</dim>
					<dim>57</dim>
				</port>
			</output>
		</layer>
		<layer id="94" name="data_add_90289033_compressed" type="Const" version="opset1">
			<data element_type="f16" shape="1, 512, 1, 1" offset="532744" size="1024"/>
			<output>
				<port id="0" precision="FP16">
					<dim>1</dim>
					<dim>512</dim>
					<dim>1</dim>
					<dim>1</dim>
				</port>
			</output>
		</layer>
		<layer id="95" name="data_add_90289033" type="Convert" version="opset1">
			<data destination_type="f32"/>
			<rt_info>
				<attribute name="decompression" version="0"/>
				<attribute name="fused_names" version="0" value="data_add_90289033"/>
			</rt_info>
			<input>
				<port id="0" precision="FP16">
					<dim>1</dim>
					<dim>512</dim>
					<dim>1</dim>
					<dim>1</dim>
				</port>
			</input>
			<output>
				<port id="1" precision="FP32">
					<dim>1</dim>
					<dim>512</dim>
					<dim>1</dim>
					<dim>1</dim>
				</port>
			</output>
		</layer>
		<layer id="96" name="conv4_2/sep/bn/variance/Fused_Add_" type="Add" version="opset1">
			<data auto_broadcast="numpy"/>
			<rt_info>
				<attribute name="fused_names" version="0" value="conv4_2/sep/bn/variance/Fused_Add_"/>
			</rt_info>
			<input>
				<port id="0" precision="FP32">
					<dim>1</dim>
					<dim>512</dim>
					<dim>32</dim>
					<dim>57</dim>
				</port>
				<port id="1" precision="FP32">
					<dim>1</dim>
					<dim>512</dim>
					<dim>1</dim>
					<dim>1</dim>
				</port>
			</input>
			<output>
				<port id="2" precision="FP32" names="conv4_2/sep">
					<dim>1</dim>
					<dim>512</dim>
					<dim>32</dim>
					<dim>57</dim>
				</port>
			</output>
		</layer>
		<layer id="97" name="relu4_2/sep" type="ReLU" version="opset1">
			<rt_info>
				<attribute name="fused_names" version="0" value="relu4_2/sep"/>
			</rt_info>
			<input>
				<port id="0" precision="FP32">
					<dim>1</dim>
					<dim>512</dim>
					<dim>32</dim>
					<dim>57</dim>
				</port>
			</input>
			<output>
				<port id="1" precision="FP32" names="conv4_2/sep">
					<dim>1</dim>
					<dim>512</dim>
					<dim>32</dim>
					<dim>57</dim>
				</port>
			</output>
		</layer>
		<layer id="98" name="conv5_1/dw/bn/mean/Fused_Mul__copy_compressed" type="Const" version="opset1">
			<data element_type="f16" shape="512, 1, 1, 3, 3" offset="533768" size="9216"/>
			<output>
				<port id="0" precision="FP16">
					<dim>512</dim>
					<dim>1</dim>
					<dim>1</dim>
					<dim>3</dim>
					<dim>3</dim>
				</port>
			</output>
		</layer>
		<layer id="99" name="conv5_1/dw/bn/mean/Fused_Mul__copy" type="Convert" version="opset1">
			<data destination_type="f32"/>
			<rt_info>
				<attribute name="decompression" version="0"/>
				<attribute name="fused_names" version="0" value="conv5_1/dw/bn/mean/Fused_Mul__copy"/>
			</rt_info>
			<input>
				<port id="0" precision="FP16">
					<dim>512</dim>
					<dim>1</dim>
					<dim>1</dim>
					<dim>3</dim>
					<dim>3</dim>
				</port>
			</input>
			<output>
				<port id="1" precision="FP32">
					<dim>512</dim>
					<dim>1</dim>
					<dim>1</dim>
					<dim>3</dim>
					<dim>3</dim>
				</port>
			</output>
		</layer>
		<layer id="100" name="conv5_1/dw" type="GroupConvolution" version="opset1">
			<data strides="1, 1" pads_begin="2, 2" pads_end="2, 2" dilations="2, 2" auto_pad="explicit"/>
			<rt_info>
				<attribute name="fused_names" version="0" value="conv5_1/dw"/>
			</rt_info>
			<input>
				<port id="0" precision="FP32">
					<dim>1</dim>
					<dim>512</dim>
					<dim>32</dim>
					<dim>57</dim>
				</port>
				<port id="1" precision="FP32">
					<dim>512</dim>
					<dim>1</dim>
					<dim>1</dim>
					<dim>3</dim>
					<dim>3</dim>
				</port>
			</input>
			<output>
				<port id="2" precision="FP32">
					<dim>1</dim>
					<dim>512</dim>
					<dim>32</dim>
					<dim>57</dim>
				</port>
			</output>
		</layer>
		<layer id="101" name="data_add_90369041_compressed" type="Const" version="opset1">
			<data element_type="f16" shape="1, 512, 1, 1" offset="542984" size="1024"/>
			<output>
				<port id="0" precision="FP16">
					<dim>1</dim>
					<dim>512</dim>
					<dim>1</dim>
					<dim>1</dim>
				</port>
			</output>
		</layer>
		<layer id="102" name="data_add_90369041" type="Convert" version="opset1">
			<data destination_type="f32"/>
			<rt_info>
				<attribute name="decompression" version="0"/>
				<attribute name="fused_names" version="0" value="data_add_90369041"/>
			</rt_info>
			<input>
				<port id="0" precision="FP16">
					<dim>1</dim>
					<dim>512</dim>
					<dim>1</dim>
					<dim>1</dim>
				</port>
			</input>
			<output>
				<port id="1" precision="FP32">
					<dim>1</dim>
					<dim>512</dim>
					<dim>1</dim>
					<dim>1</dim>
				</port>
			</output>
		</layer>
		<layer id="103" name="conv5_1/dw/bn/variance/Fused_Add_" type="Add" version="opset1">
			<data auto_broadcast="numpy"/>
			<rt_info>
				<attribute name="fused_names" version="0" value="conv5_1/dw/bn/variance/Fused_Add_"/>
			</rt_info>
			<input>
				<port id="0" precision="FP32">
					<dim>1</dim>
					<dim>512</dim>
					<dim>32</dim>
					<dim>57</dim>
				</port>
				<port id="1" precision="FP32">
					<dim>1</dim>
					<dim>512</dim>
					<dim>1</dim>
					<dim>1</dim>
				</port>
			</input>
			<output>
				<port id="2" precision="FP32" names="conv5_1/dw">
					<dim>1</dim>
					<dim>512</dim>
					<dim>32</dim>
					<dim>57</dim>
				</port>
			</output>
		</layer>
		<layer id="104" name="relu5_1/dw" type="ReLU" version="opset1">
			<rt_info>
				<attribute name="fused_names" version="0" value="relu5_1/dw"/>
			</rt_info>
			<input>
				<port id="0" precision="FP32">
					<dim>1</dim>
					<dim>512</dim>
					<dim>32</dim>
					<dim>57</dim>
				</port>
			</input>
			<output>
				<port id="1" precision="FP32" names="conv5_1/dw">
					<dim>1</dim>
					<dim>512</dim>
					<dim>32</dim>
					<dim>57</dim>
				</port>
			</output>
		</layer>
		<layer id="105" name="conv5_1/sep/bn/mean/Fused_Mul__copy_compressed" type="Const" version="opset1">
			<data element_type="f16" shape="512, 512, 1, 1" offset="544008" size="524288"/>
			<output>
				<port id="0" precision="FP16">
					<dim>512</dim>
					<dim>512</dim>
					<dim>1</dim>
					<dim>1</dim>
				</port>
			</output>
		</layer>
		<layer id="106" name="conv5_1/sep/bn/mean/Fused_Mul__copy" type="Convert" version="opset1">
			<data destination_type="f32"/>
			<rt_info>
				<attribute name="decompression" version="0"/>
				<attribute name="fused_names" version="0" value="conv5_1/sep/bn/mean/Fused_Mul__copy"/>
			</rt_info>
			<input>
				<port id="0" precision="FP16">
					<dim>512</dim>
					<dim>512</dim>
					<dim>1</dim>
					<dim>1</dim>
				</port>
			</input>
			<output>
				<port id="1" precision="FP32">
					<dim>512</dim>
					<dim>512</dim>
					<dim>1</dim>
					<dim>1</dim>
				</port>
			</output>
		</layer>
		<layer id="107" name="conv5_1/sep" type="Convolution" version="opset1">
			<data strides="1, 1" dilations="1, 1" pads_begin="0, 0" pads_end="0, 0" auto_pad="explicit"/>
			<rt_info>
				<attribute name="fused_names" version="0" value="conv5_1/sep"/>
			</rt_info>
			<input>
				<port id="0" precision="FP32">
					<dim>1</dim>
					<dim>512</dim>
					<dim>32</dim>
					<dim>57</dim>
				</port>
				<port id="1" precision="FP32">
					<dim>512</dim>
					<dim>512</dim>
					<dim>1</dim>
					<dim>1</dim>
				</port>
			</input>
			<output>
				<port id="2" precision="FP32">
					<dim>1</dim>
					<dim>512</dim>
					<dim>32</dim>
					<dim>57</dim>
				</port>
			</output>
		</layer>
		<layer id="108" name="data_add_90449049_compressed" type="Const" version="opset1">
			<data element_type="f16" shape="1, 512, 1, 1" offset="1068296" size="1024"/>
			<output>
				<port id="0" precision="FP16">
					<dim>1</dim>
					<dim>512</dim>
					<dim>1</dim>
					<dim>1</dim>
				</port>
			</output>
		</layer>
		<layer id="109" name="data_add_90449049" type="Convert" version="opset1">
			<data destination_type="f32"/>
			<rt_info>
				<attribute name="decompression" version="0"/>
				<attribute name="fused_names" version="0" value="data_add_90449049"/>
			</rt_info>
			<input>
				<port id="0" precision="FP16">
					<dim>1</dim>
					<dim>512</dim>
					<dim>1</dim>
					<dim>1</dim>
				</port>
			</input>
			<output>
				<port id="1" precision="FP32">
					<dim>1</dim>
					<dim>512</dim>
					<dim>1</dim>
					<dim>1</dim>
				</port>
			</output>
		</layer>
		<layer id="110" name="conv5_1/sep/bn/variance/Fused_Add_" type="Add" version="opset1">
			<data auto_broadcast="numpy"/>
			<rt_info>
				<attribute name="fused_names" version="0" value="conv5_1/sep/bn/variance/Fused_Add_"/>
			</rt_info>
			<input>
				<port id="0" precision="FP32">
					<dim>1</dim>
					<dim>512</dim>
					<dim>32</dim>
					<dim>57</dim>
				</port>
				<port id="1" precision="FP32">
					<dim>1</dim>
					<dim>512</dim>
					<dim>1</dim>
					<dim>1</dim>
				</port>
			</input>
			<output>
				<port id="2" precision="FP32" names="conv5_1/sep">
					<dim>1</dim>
					<dim>512</dim>
					<dim>32</dim>
					<dim>57</dim>
				</port>
			</output>
		</layer>
		<layer id="111" name="relu5_1/sep" type="ReLU" version="opset1">
			<rt_info>
				<attribute name="fused_names" version="0" value="relu5_1/sep"/>
			</rt_info>
			<input>
				<port id="0" precision="FP32">
					<dim>1</dim>
					<dim>512</dim>
					<dim>32</dim>
					<dim>57</dim>
				</port>
			</input>
			<output>
				<port id="1" precision="FP32" names="conv5_1/sep">
					<dim>1</dim>
					<dim>512</dim>
					<dim>32</dim>
					<dim>57</dim>
				</port>
			</output>
		</layer>
		<layer id="112" name="conv5_2/dw/bn/mean/Fused_Mul__copy_compressed" type="Const" version="opset1">
			<data element_type="f16" shape="512, 1, 1, 3, 3" offset="1069320" size="9216"/>
			<output>
				<port id="0" precision="FP16">
					<dim>512</dim>
					<dim>1</dim>
					<dim>1</dim>
					<dim>3</dim>
					<dim>3</dim>
				</port>
			</output>
		</layer>
		<layer id="113" name="conv5_2/dw/bn/mean/Fused_Mul__copy" type="Convert" version="opset1">
			<data destination_type="f32"/>
			<rt_info>
				<attribute name="decompression" version="0"/>
				<attribute name="fused_names" version="0" value="conv5_2/dw/bn/mean/Fused_Mul__copy"/>
			</rt_info>
			<input>
				<port id="0" precision="FP16">
					<dim>512</dim>
					<dim>1</dim>
					<dim>1</dim>
					<dim>3</dim>
					<dim>3</dim>
				</port>
			</input>
			<output>
				<port id="1" precision="FP32">
					<dim>512</dim>
					<dim>1</dim>
					<dim>1</dim>
					<dim>3</dim>
					<dim>3</dim>
				</port>
			</output>
		</layer>
		<layer id="114" name="conv5_2/dw" type="GroupConvolution" version="opset1">
			<data strides="1, 1" pads_begin="1, 1" pads_end="1, 1" dilations="1, 1" auto_pad="explicit"/>
			<rt_info>
				<attribute name="fused_names" version="0" value="conv5_2/dw"/>
			</rt_info>
			<input>
				<port id="0" precision="FP32">
					<dim>1</dim>
					<dim>512</dim>
					<dim>32</dim>
					<dim>57</dim>
				</port>
				<port id="1" precision="FP32">
					<dim>512</dim>
					<dim>1</dim>
					<dim>1</dim>
					<dim>3</dim>
					<dim>3</dim>
				</port>
			</input>
			<output>
				<port id="2" precision="FP32">
					<dim>1</dim>
					<dim>512</dim>
					<dim>32</dim>
					<dim>57</dim>
				</port>
			</output>
		</layer>
		<layer id="115" name="data_add_90529057_compressed" type="Const" version="opset1">
			<data element_type="f16" shape="1, 512, 1, 1" offset="1078536" size="1024"/>
			<output>
				<port id="0" precision="FP16">
					<dim>1</dim>
					<dim>512</dim>
					<dim>1</dim>
					<dim>1</dim>
				</port>
			</output>
		</layer>
		<layer id="116" name="data_add_90529057" type="Convert" version="opset1">
			<data destination_type="f32"/>
			<rt_info>
				<attribute name="decompression" version="0"/>
				<attribute name="fused_names" version="0" value="data_add_90529057"/>
			</rt_info>
			<input>
				<port id="0" precision="FP16">
					<dim>1</dim>
					<dim>512</dim>
					<dim>1</dim>
					<dim>1</dim>
				</port>
			</input>
			<output>
				<port id="1" precision="FP32">
					<dim>1</dim>
					<dim>512</dim>
					<dim>1</dim>
					<dim>1</dim>
				</port>
			</output>
		</layer>
		<layer id="117" name="conv5_2/dw/bn/variance/Fused_Add_" type="Add" version="opset1">
			<data auto_broadcast="numpy"/>
			<rt_info>
				<attribute name="fused_names" version="0" value="conv5_2/dw/bn/variance/Fused_Add_"/>
			</rt_info>
			<input>
				<port id="0" precision="FP32">
					<dim>1</dim>
					<dim>512</dim>
					<dim>32</dim>
					<dim>57</dim>
				</port>
				<port id="1" precision="FP32">
					<dim>1</dim>
					<dim>512</dim>
					<dim>1</dim>
					<dim>1</dim>
				</port>
			</input>
			<output>
				<port id="2" precision="FP32" names="conv5_2/dw">
					<dim>1</dim>
					<dim>512</dim>
					<dim>32</dim>
					<dim>57</dim>
				</port>
			</output>
		</layer>
		<layer id="118" name="relu5_2/dw" type="ReLU" version="opset1">
			<rt_info>
				<attribute name="fused_names" version="0" value="relu5_2/dw"/>
			</rt_info>
			<input>
				<port id="0" precision="FP32">
					<dim>1</dim>
					<dim>512</dim>
					<dim>32</dim>
					<dim>57</dim>
				</port>
			</input>
			<output>
				<port id="1" precision="FP32" names="conv5_2/dw">
					<dim>1</dim>
					<dim>512</dim>
					<dim>32</dim>
					<dim>57</dim>
				</port>
			</output>
		</layer>
		<layer id="119" name="conv5_2/sep/bn/mean/Fused_Mul__copy_compressed" type="Const" version="opset1">
			<data element_type="f16" shape="512, 512, 1, 1" offset="1079560" size="524288"/>
			<output>
				<port id="0" precision="FP16">
					<dim>512</dim>
					<dim>512</dim>
					<dim>1</dim>
					<dim>1</dim>
				</port>
			</output>
		</layer>
		<layer id="120" name="conv5_2/sep/bn/mean/Fused_Mul__copy" type="Convert" version="opset1">
			<data destination_type="f32"/>
			<rt_info>
				<attribute name="decompression" version="0"/>
				<attribute name="fused_names" version="0" value="conv5_2/sep/bn/mean/Fused_Mul__copy"/>
			</rt_info>
			<input>
				<port id="0" precision="FP16">
					<dim>512</dim>
					<dim>512</dim>
					<dim>1</dim>
					<dim>1</dim>
				</port>
			</input>
			<output>
				<port id="1" precision="FP32">
					<dim>512</dim>
					<dim>512</dim>
					<dim>1</dim>
					<dim>1</dim>
				</port>
			</output>
		</layer>
		<layer id="121" name="conv5_2/sep" type="Convolution" version="opset1">
			<data strides="1, 1" dilations="1, 1" pads_begin="0, 0" pads_end="0, 0" auto_pad="explicit"/>
			<rt_info>
				<attribute name="fused_names" version="0" value="conv5_2/sep"/>
			</rt_info>
			<input>
				<port id="0" precision="FP32">
					<dim>1</dim>
					<dim>512</dim>
					<dim>32</dim>
					<dim>57</dim>
				</port>
				<port id="1" precision="FP32">
					<dim>512</dim>
					<dim>512</dim>
					<dim>1</dim>
					<dim>1</dim>
				</port>
			</input>
			<output>
				<port id="2" precision="FP32">
					<dim>1</dim>
					<dim>512</dim>
					<dim>32</dim>
					<dim>57</dim>
				</port>
			</output>
		</layer>
		<layer id="122" name="data_add_90609065_compressed" type="Const" version="opset1">
			<data element_type="f16" shape="1, 512, 1, 1" offset="1603848" size="1024"/>
			<output>
				<port id="0" precision="FP16">
					<dim>1</dim>
					<dim>512</dim>
					<dim>1</dim>
					<dim>1</dim>
				</port>
			</output>
		</layer>
		<layer id="123" name="data_add_90609065" type="Convert" version="opset1">
			<data destination_type="f32"/>
			<rt_info>
				<attribute name="decompression" version="0"/>
				<attribute name="fused_names" version="0" value="data_add_90609065"/>
			</rt_info>
			<input>
				<port id="0" precision="FP16">
					<dim>1</dim>
					<dim>512</dim>
					<dim>1</dim>
					<dim>1</dim>
				</port>
			</input>
			<output>
				<port id="1" precision="FP32">
					<dim>1</dim>
					<dim>512</dim>
					<dim>1</dim>
					<dim>1</dim>
				</port>
			</output>
		</layer>
		<layer id="124" name="conv5_2/sep/bn/variance/Fused_Add_" type="Add" version="opset1">
			<data auto_broadcast="numpy"/>
			<rt_info>
				<attribute name="fused_names" version="0" value="conv5_2/sep/bn/variance/Fused_Add_"/>
			</rt_info>
			<input>
				<port id="0" precision="FP32">
					<dim>1</dim>
					<dim>512</dim>
					<dim>32</dim>
					<dim>57</dim>
				</port>
				<port id="1" precision="FP32">
					<dim>1</dim>
					<dim>512</dim>
					<dim>1</dim>
					<dim>1</dim>
				</port>
			</input>
			<output>
				<port id="2" precision="FP32" names="conv5_2/sep">
					<dim>1</dim>
					<dim>512</dim>
					<dim>32</dim>
					<dim>57</dim>
				</port>
			</output>
		</layer>
		<layer id="125" name="relu5_2/sep" type="ReLU" version="opset1">
			<rt_info>
				<attribute name="fused_names" version="0" value="relu5_2/sep"/>
			</rt_info>
			<input>
				<port id="0" precision="FP32">
					<dim>1</dim>
					<dim>512</dim>
					<dim>32</dim>
					<dim>57</dim>
				</port>
			</input>
			<output>
				<port id="1" precision="FP32" names="conv5_2/sep">
					<dim>1</dim>
					<dim>512</dim>
					<dim>32</dim>
					<dim>57</dim>
				</port>
			</output>
		</layer>
		<layer id="126" name="conv5_3/dw/bn/mean/Fused_Mul__copy_compressed" type="Const" version="opset1">
			<data element_type="f16" shape="512, 1, 1, 3, 3" offset="1604872" size="9216"/>
			<output>
				<port id="0" precision="FP16">
					<dim>512</dim>
					<dim>1</dim>
					<dim>1</dim>
					<dim>3</dim>
					<dim>3</dim>
				</port>
			</output>
		</layer>
		<layer id="127" name="conv5_3/dw/bn/mean/Fused_Mul__copy" type="Convert" version="opset1">
			<data destination_type="f32"/>
			<rt_info>
				<attribute name="decompression" version="0"/>
				<attribute name="fused_names" version="0" value="conv5_3/dw/bn/mean/Fused_Mul__copy"/>
			</rt_info>
			<input>
				<port id="0" precision="FP16">
					<dim>512</dim>
					<dim>1</dim>
					<dim>1</dim>
					<dim>3</dim>
					<dim>3</dim>
				</port>
			</input>
			<output>
				<port id="1" precision="FP32">
					<dim>512</dim>
					<dim>1</dim>
					<dim>1</dim>
					<dim>3</dim>
					<dim>3</dim>
				</port>
			</output>
		</layer>
		<layer id="128" name="conv5_3/dw" type="GroupConvolution" version="opset1">
			<data strides="1, 1" pads_begin="1, 1" pads_end="1, 1" dilations="1, 1" auto_pad="explicit"/>
			<rt_info>
				<attribute name="fused_names" version="0" value="conv5_3/dw"/>
			</rt_info>
			<input>
				<port id="0" precision="FP32">
					<dim>1</dim>
					<dim>512</dim>
					<dim>32</dim>
					<dim>57</dim>
				</port>
				<port id="1" precision="FP32">
					<dim>512</dim>
					<dim>1</dim>
					<dim>1</dim>
					<dim>3</dim>
					<dim>3</dim>
				</port>
			</input>
			<output>
				<port id="2" precision="FP32">
					<dim>1</dim>
					<dim>512</dim>
					<dim>32</dim>
					<dim>57</dim>
				</port>
			</output>
		</layer>
		<layer id="129" name="data_add_90689073_compressed" type="Const" version="opset1">
			<data element_type="f16" shape="1, 512, 1, 1" offset="1614088" size="1024"/>
			<output>
				<port id="0" precision="FP16">
					<dim>1</dim>
					<dim>512</dim>
					<dim>1</dim>
					<dim>1</dim>
				</port>
			</output>
		</layer>
		<layer id="130" name="data_add_90689073" type="Convert" version="opset1">
			<data destination_type="f32"/>
			<rt_info>
				<attribute name="decompression" version="0"/>
				<attribute name="fused_names" version="0" value="data_add_90689073"/>
			</rt_info>
			<input>
				<port id="0" precision="FP16">
					<dim>1</dim>
					<dim>512</dim>
					<dim>1</dim>
					<dim>1</dim>
				</port>
			</input>
			<output>
				<port id="1" precision="FP32">
					<dim>1</dim>
					<dim>512</dim>
					<dim>1</dim>
					<dim>1</dim>
				</port>
			</output>
		</layer>
		<layer id="131" name="conv5_3/dw/bn/variance/Fused_Add_" type="Add" version="opset1">
			<data auto_broadcast="numpy"/>
			<rt_info>
				<attribute name="fused_names" version="0" value="conv5_3/dw/bn/variance/Fused_Add_"/>
			</rt_info>
			<input>
				<port id="0" precision="FP32">
					<dim>1</dim>
					<dim>512</dim>
					<dim>32</dim>
					<dim>57</dim>
				</port>
				<port id="1" precision="FP32">
					<dim>1</dim>
					<dim>512</dim>
					<dim>1</dim>
					<dim>1</dim>
				</port>
			</input>
			<output>
				<port id="2" precision="FP32" names="conv5_3/dw">
					<dim>1</dim>
					<dim>512</dim>
					<dim>32</dim>
					<dim>57</dim>
				</port>
			</output>
		</layer>
		<layer id="132" name="relu5_3/dw" type="ReLU" version="opset1">
			<rt_info>
				<attribute name="fused_names" version="0" value="relu5_3/dw"/>
			</rt_info>
			<input>
				<port id="0" precision="FP32">
					<dim>1</dim>
					<dim>512</dim>
					<dim>32</dim>
					<dim>57</dim>
				</port>
			</input>
			<output>
				<port id="1" precision="FP32" names="conv5_3/dw">
					<dim>1</dim>
					<dim>512</dim>
					<dim>32</dim>
					<dim>57</dim>
				</port>
			</output>
		</layer>
		<layer id="133" name="conv5_3/sep/bn/mean/Fused_Mul__copy_compressed" type="Const" version="opset1">
			<data element_type="f16" shape="512, 512, 1, 1" offset="1615112" size="524288"/>
			<output>
				<port id="0" precision="FP16">
					<dim>512</dim>
					<dim>512</dim>
					<dim>1</dim>
					<dim>1</dim>
				</port>
			</output>
		</layer>
		<layer id="134" name="conv5_3/sep/bn/mean/Fused_Mul__copy" type="Convert" version="opset1">
			<data destination_type="f32"/>
			<rt_info>
				<attribute name="decompression" version="0"/>
				<attribute name="fused_names" version="0" value="conv5_3/sep/bn/mean/Fused_Mul__copy"/>
			</rt_info>
			<input>
				<port id="0" precision="FP16">
					<dim>512</dim>
					<dim>512</dim>
					<dim>1</dim>
					<dim>1</dim>
				</port>
			</input>
			<output>
				<port id="1" precision="FP32">
					<dim>512</dim>
					<dim>512</dim>
					<dim>1</dim>
					<dim>1</dim>
				</port>
			</output>
		</layer>
		<layer id="135" name="conv5_3/sep" type="Convolution" version="opset1">
			<data strides="1, 1" dilations="1, 1" pads_begin="0, 0" pads_end="0, 0" auto_pad="explicit"/>
			<rt_info>
				<attribute name="fused_names" version="0" value="conv5_3/sep"/>
			</rt_info>
			<input>
				<port id="0" precision="FP32">
					<dim>1</dim>
					<dim>512</dim>
					<dim>32</dim>
					<dim>57</dim>
				</port>
				<port id="1" precision="FP32">
					<dim>512</dim>
					<dim>512</dim>
					<dim>1</dim>
					<dim>1</dim>
				</port>
			</input>
			<output>
				<port id="2" precision="FP32">
					<dim>1</dim>
					<dim>512</dim>
					<dim>32</dim>
					<dim>57</dim>
				</port>
			</output>
		</layer>
		<layer id="136" name="data_add_90769081_compressed" type="Const" version="opset1">
			<data element_type="f16" shape="1, 512, 1, 1" offset="2139400" size="1024"/>
			<output>
				<port id="0" precision="FP16">
					<dim>1</dim>
					<dim>512</dim>
					<dim>1</dim>
					<dim>1</dim>
				</port>
			</output>
		</layer>
		<layer id="137" name="data_add_90769081" type="Convert" version="opset1">
			<data destination_type="f32"/>
			<rt_info>
				<attribute name="decompression" version="0"/>
				<attribute name="fused_names" version="0" value="data_add_90769081"/>
			</rt_info>
			<input>
				<port id="0" precision="FP16">
					<dim>1</dim>
					<dim>512</dim>
					<dim>1</dim>
					<dim>1</dim>
				</port>
			</input>
			<output>
				<port id="1" precision="FP32">
					<dim>1</dim>
					<dim>512</dim>
					<dim>1</dim>
					<dim>1</dim>
				</port>
			</output>
		</layer>
		<layer id="138" name="conv5_3/sep/bn/variance/Fused_Add_" type="Add" version="opset1">
			<data auto_broadcast="numpy"/>
			<rt_info>
				<attribute name="fused_names" version="0" value="conv5_3/sep/bn/variance/Fused_Add_"/>
			</rt_info>
			<input>
				<port id="0" precision="FP32">
					<dim>1</dim>
					<dim>512</dim>
					<dim>32</dim>
					<dim>57</dim>
				</port>
				<port id="1" precision="FP32">
					<dim>1</dim>
					<dim>512</dim>
					<dim>1</dim>
					<dim>1</dim>
				</port>
			</input>
			<output>
				<port id="2" precision="FP32" names="conv5_3/sep">
					<dim>1</dim>
					<dim>512</dim>
					<dim>32</dim>
					<dim>57</dim>
				</port>
			</output>
		</layer>
		<layer id="139" name="relu5_3/sep" type="ReLU" version="opset1">
			<rt_info>
				<attribute name="fused_names" version="0" value="relu5_3/sep"/>
			</rt_info>
			<input>
				<port id="0" precision="FP32">
					<dim>1</dim>
					<dim>512</dim>
					<dim>32</dim>
					<dim>57</dim>
				</port>
			</input>
			<output>
				<port id="1" precision="FP32" names="conv5_3/sep">
					<dim>1</dim>
					<dim>512</dim>
					<dim>32</dim>
					<dim>57</dim>
				</port>
			</output>
		</layer>
		<layer id="140" name="conv5_4/dw/bn/mean/Fused_Mul__copy_compressed" type="Const" version="opset1">
			<data element_type="f16" shape="512, 1, 1, 3, 3" offset="2140424" size="9216"/>
			<output>
				<port id="0" precision="FP16">
					<dim>512</dim>
					<dim>1</dim>
					<dim>1</dim>
					<dim>3</dim>
					<dim>3</dim>
				</port>
			</output>
		</layer>
		<layer id="141" name="conv5_4/dw/bn/mean/Fused_Mul__copy" type="Convert" version="opset1">
			<data destination_type="f32"/>
			<rt_info>
				<attribute name="decompression" version="0"/>
				<attribute name="fused_names" version="0" value="conv5_4/dw/bn/mean/Fused_Mul__copy"/>
			</rt_info>
			<input>
				<port id="0" precision="FP16">
					<dim>512</dim>
					<dim>1</dim>
					<dim>1</dim>
					<dim>3</dim>
					<dim>3</dim>
				</port>
			</input>
			<output>
				<port id="1" precision="FP32">
					<dim>512</dim>
					<dim>1</dim>
					<dim>1</dim>
					<dim>3</dim>
					<dim>3</dim>
				</port>
			</output>
		</layer>
		<layer id="142" name="conv5_4/dw" type="GroupConvolution" version="opset1">
			<data strides="1, 1" pads_begin="1, 1" pads_end="1, 1" dilations="1, 1" auto_pad="explicit"/>
			<rt_info>
				<attribute name="fused_names" version="0" value="conv5_4/dw"/>
			</rt_info>
			<input>
				<port id="0" precision="FP32">
					<dim>1</dim>
					<dim>512</dim>
					<dim>32</dim>
					<dim>57</dim>
				</port>
				<port id="1" precision="FP32">
					<dim>512</dim>
					<dim>1</dim>
					<dim>1</dim>
					<dim>3</dim>
					<dim>3</dim>
				</port>
			</input>
			<output>
				<port id="2" precision="FP32">
					<dim>1</dim>
					<dim>512</dim>
					<dim>32</dim>
					<dim>57</dim>
				</port>
			</output>
		</layer>
		<layer id="143" name="data_add_90849089_compressed" type="Const" version="opset1">
			<data element_type="f16" shape="1, 512, 1, 1" offset="2149640" size="1024"/>
			<output>
				<port id="0" precision="FP16">
					<dim>1</dim>
					<dim>512</dim>
					<dim>1</dim>
					<dim>1</dim>
				</port>
			</output>
		</layer>
		<layer id="144" name="data_add_90849089" type="Convert" version="opset1">
			<data destination_type="f32"/>
			<rt_info>
				<attribute name="decompression" version="0"/>
				<attribute name="fused_names" version="0" value="data_add_90849089"/>
			</rt_info>
			<input>
				<port id="0" precision="FP16">
					<dim>1</dim>
					<dim>512</dim>
					<dim>1</dim>
					<dim>1</dim>
				</port>
			</input>
			<output>
				<port id="1" precision="FP32">
					<dim>1</dim>
					<dim>512</dim>
					<dim>1</dim>
					<dim>1</dim>
				</port>
			</output>
		</layer>
		<layer id="145" name="conv5_4/dw/bn/variance/Fused_Add_" type="Add" version="opset1">
			<data auto_broadcast="numpy"/>
			<rt_info>
				<attribute name="fused_names" version="0" value="conv5_4/dw/bn/variance/Fused_Add_"/>
			</rt_info>
			<input>
				<port id="0" precision="FP32">
					<dim>1</dim>
					<dim>512</dim>
					<dim>32</dim>
					<dim>57</dim>
				</port>
				<port id="1" precision="FP32">
					<dim>1</dim>
					<dim>512</dim>
					<dim>1</dim>
					<dim>1</dim>
				</port>
			</input>
			<output>
				<port id="2" precision="FP32" names="conv5_4/dw">
					<dim>1</dim>
					<dim>512</dim>
					<dim>32</dim>
					<dim>57</dim>
				</port>
			</output>
		</layer>
		<layer id="146" name="relu5_4/dw" type="ReLU" version="opset1">
			<rt_info>
				<attribute name="fused_names" version="0" value="relu5_4/dw"/>
			</rt_info>
			<input>
				<port id="0" precision="FP32">
					<dim>1</dim>
					<dim>512</dim>
					<dim>32</dim>
					<dim>57</dim>
				</port>
			</input>
			<output>
				<port id="1" precision="FP32" names="conv5_4/dw">
					<dim>1</dim>
					<dim>512</dim>
					<dim>32</dim>
					<dim>57</dim>
				</port>
			</output>
		</layer>
		<layer id="147" name="conv5_4/sep/bn/mean/Fused_Mul__copy_compressed" type="Const" version="opset1">
			<data element_type="f16" shape="512, 512, 1, 1" offset="2150664" size="524288"/>
			<output>
				<port id="0" precision="FP16">
					<dim>512</dim>
					<dim>512</dim>
					<dim>1</dim>
					<dim>1</dim>
				</port>
			</output>
		</layer>
		<layer id="148" name="conv5_4/sep/bn/mean/Fused_Mul__copy" type="Convert" version="opset1">
			<data destination_type="f32"/>
			<rt_info>
				<attribute name="decompression" version="0"/>
				<attribute name="fused_names" version="0" value="conv5_4/sep/bn/mean/Fused_Mul__copy"/>
			</rt_info>
			<input>
				<port id="0" precision="FP16">
					<dim>512</dim>
					<dim>512</dim>
					<dim>1</dim>
					<dim>1</dim>
				</port>
			</input>
			<output>
				<port id="1" precision="FP32">
					<dim>512</dim>
					<dim>512</dim>
					<dim>1</dim>
					<dim>1</dim>
				</port>
			</output>
		</layer>
		<layer id="149" name="conv5_4/sep" type="Convolution" version="opset1">
			<data strides="1, 1" dilations="1, 1" pads_begin="0, 0" pads_end="0, 0" auto_pad="explicit"/>
			<rt_info>
				<attribute name="fused_names" version="0" value="conv5_4/sep"/>
			</rt_info>
			<input>
				<port id="0" precision="FP32">
					<dim>1</dim>
					<dim>512</dim>
					<dim>32</dim>
					<dim>57</dim>
				</port>
				<port id="1" precision="FP32">
					<dim>512</dim>
					<dim>512</dim>
					<dim>1</dim>
					<dim>1</dim>
				</port>
			</input>
			<output>
				<port id="2" precision="FP32">
					<dim>1</dim>
					<dim>512</dim>
					<dim>32</dim>
					<dim>57</dim>
				</port>
			</output>
		</layer>
		<layer id="150" name="data_add_90929097_compressed" type="Const" version="opset1">
			<data element_type="f16" shape="1, 512, 1, 1" offset="2674952" size="1024"/>
			<output>
				<port id="0" precision="FP16">
					<dim>1</dim>
					<dim>512</dim>
					<dim>1</dim>
					<dim>1</dim>
				</port>
			</output>
		</layer>
		<layer id="151" name="data_add_90929097" type="Convert" version="opset1">
			<data destination_type="f32"/>
			<rt_info>
				<attribute name="decompression" version="0"/>
				<attribute name="fused_names" version="0" value="data_add_90929097"/>
			</rt_info>
			<input>
				<port id="0" precision="FP16">
					<dim>1</dim>
					<dim>512</dim>
					<dim>1</dim>
					<dim>1</dim>
				</port>
			</input>
			<output>
				<port id="1" precision="FP32">
					<dim>1</dim>
					<dim>512</dim>
					<dim>1</dim>
					<dim>1</dim>
				</port>
			</output>
		</layer>
		<layer id="152" name="conv5_4/sep/bn/variance/Fused_Add_" type="Add" version="opset1">
			<data auto_broadcast="numpy"/>
			<rt_info>
				<attribute name="fused_names" version="0" value="conv5_4/sep/bn/variance/Fused_Add_"/>
			</rt_info>
			<input>
				<port id="0" precision="FP32">
					<dim>1</dim>
					<dim>512</dim>
					<dim>32</dim>
					<dim>57</dim>
				</port>
				<port id="1" precision="FP32">
					<dim>1</dim>
					<dim>512</dim>
					<dim>1</dim>
					<dim>1</dim>
				</port>
			</input>
			<output>
				<port id="2" precision="FP32" names="conv5_4/sep">
					<dim>1</dim>
					<dim>512</dim>
					<dim>32</dim>
					<dim>57</dim>
				</port>
			</output>
		</layer>
		<layer id="153" name="relu5_4/sep" type="ReLU" version="opset1">
			<rt_info>
				<attribute name="fused_names" version="0" value="relu5_4/sep"/>
			</rt_info>
			<input>
				<port id="0" precision="FP32">
					<dim>1</dim>
					<dim>512</dim>
					<dim>32</dim>
					<dim>57</dim>
				</port>
			</input>
			<output>
				<port id="1" precision="FP32" names="conv5_4/sep">
					<dim>1</dim>
					<dim>512</dim>
					<dim>32</dim>
					<dim>57</dim>
				</port>
			</output>
		</layer>
		<layer id="154" name="conv5_5/dw/bn/mean/Fused_Mul__copy_compressed" type="Const" version="opset1">
			<data element_type="f16" shape="512, 1, 1, 3, 3" offset="2675976" size="9216"/>
			<output>
				<port id="0" precision="FP16">
					<dim>512</dim>
					<dim>1</dim>
					<dim>1</dim>
					<dim>3</dim>
					<dim>3</dim>
				</port>
			</output>
		</layer>
		<layer id="155" name="conv5_5/dw/bn/mean/Fused_Mul__copy" type="Convert" version="opset1">
			<data destination_type="f32"/>
			<rt_info>
				<attribute name="decompression" version="0"/>
				<attribute name="fused_names" version="0" value="conv5_5/dw/bn/mean/Fused_Mul__copy"/>
			</rt_info>
			<input>
				<port id="0" precision="FP16">
					<dim>512</dim>
					<dim>1</dim>
					<dim>1</dim>
					<dim>3</dim>
					<dim>3</dim>
				</port>
			</input>
			<output>
				<port id="1" precision="FP32">
					<dim>512</dim>
					<dim>1</dim>
					<dim>1</dim>
					<dim>3</dim>
					<dim>3</dim>
				</port>
			</output>
		</layer>
		<layer id="156" name="conv5_5/dw" type="GroupConvolution" version="opset1">
			<data strides="1, 1" pads_begin="1, 1" pads_end="1, 1" dilations="1, 1" auto_pad="explicit"/>
			<rt_info>
				<attribute name="fused_names" version="0" value="conv5_5/dw"/>
			</rt_info>
			<input>
				<port id="0" precision="FP32">
					<dim>1</dim>
					<dim>512</dim>
					<dim>32</dim>
					<dim>57</dim>
				</port>
				<port id="1" precision="FP32">
					<dim>512</dim>
					<dim>1</dim>
					<dim>1</dim>
					<dim>3</dim>
					<dim>3</dim>
				</port>
			</input>
			<output>
				<port id="2" precision="FP32">
					<dim>1</dim>
					<dim>512</dim>
					<dim>32</dim>
					<dim>57</dim>
				</port>
			</output>
		</layer>
		<layer id="157" name="data_add_91009105_compressed" type="Const" version="opset1">
			<data element_type="f16" shape="1, 512, 1, 1" offset="2685192" size="1024"/>
			<output>
				<port id="0" precision="FP16">
					<dim>1</dim>
					<dim>512</dim>
					<dim>1</dim>
					<dim>1</dim>
				</port>
			</output>
		</layer>
		<layer id="158" name="data_add_91009105" type="Convert" version="opset1">
			<data destination_type="f32"/>
			<rt_info>
				<attribute name="decompression" version="0"/>
				<attribute name="fused_names" version="0" value="data_add_91009105"/>
			</rt_info>
			<input>
				<port id="0" precision="FP16">
					<dim>1</dim>
					<dim>512</dim>
					<dim>1</dim>
					<dim>1</dim>
				</port>
			</input>
			<output>
				<port id="1" precision="FP32">
					<dim>1</dim>
					<dim>512</dim>
					<dim>1</dim>
					<dim>1</dim>
				</port>
			</output>
		</layer>
		<layer id="159" name="conv5_5/dw/bn/variance/Fused_Add_" type="Add" version="opset1">
			<data auto_broadcast="numpy"/>
			<rt_info>
				<attribute name="fused_names" version="0" value="conv5_5/dw/bn/variance/Fused_Add_"/>
			</rt_info>
			<input>
				<port id="0" precision="FP32">
					<dim>1</dim>
					<dim>512</dim>
					<dim>32</dim>
					<dim>57</dim>
				</port>
				<port id="1" precision="FP32">
					<dim>1</dim>
					<dim>512</dim>
					<dim>1</dim>
					<dim>1</dim>
				</port>
			</input>
			<output>
				<port id="2" precision="FP32" names="conv5_5/dw">
					<dim>1</dim>
					<dim>512</dim>
					<dim>32</dim>
					<dim>57</dim>
				</port>
			</output>
		</layer>
		<layer id="160" name="relu5_5/dw" type="ReLU" version="opset1">
			<rt_info>
				<attribute name="fused_names" version="0" value="relu5_5/dw"/>
			</rt_info>
			<input>
				<port id="0" precision="FP32">
					<dim>1</dim>
					<dim>512</dim>
					<dim>32</dim>
					<dim>57</dim>
				</port>
			</input>
			<output>
				<port id="1" precision="FP32" names="conv5_5/dw">
					<dim>1</dim>
					<dim>512</dim>
					<dim>32</dim>
					<dim>57</dim>
				</port>
			</output>
		</layer>
		<layer id="161" name="conv5_5/sep/bn/mean/Fused_Mul__copy_compressed" type="Const" version="opset1">
			<data element_type="f16" shape="512, 512, 1, 1" offset="2686216" size="524288"/>
			<output>
				<port id="0" precision="FP16">
					<dim>512</dim>
					<dim>512</dim>
					<dim>1</dim>
					<dim>1</dim>
				</port>
			</output>
		</layer>
		<layer id="162" name="conv5_5/sep/bn/mean/Fused_Mul__copy" type="Convert" version="opset1">
			<data destination_type="f32"/>
			<rt_info>
				<attribute name="decompression" version="0"/>
				<attribute name="fused_names" version="0" value="conv5_5/sep/bn/mean/Fused_Mul__copy"/>
			</rt_info>
			<input>
				<port id="0" precision="FP16">
					<dim>512</dim>
					<dim>512</dim>
					<dim>1</dim>
					<dim>1</dim>
				</port>
			</input>
			<output>
				<port id="1" precision="FP32">
					<dim>512</dim>
					<dim>512</dim>
					<dim>1</dim>
					<dim>1</dim>
				</port>
			</output>
		</layer>
		<layer id="163" name="conv5_5/sep" type="Convolution" version="opset1">
			<data strides="1, 1" dilations="1, 1" pads_begin="0, 0" pads_end="0, 0" auto_pad="explicit"/>
			<rt_info>
				<attribute name="fused_names" version="0" value="conv5_5/sep"/>
			</rt_info>
			<input>
				<port id="0" precision="FP32">
					<dim>1</dim>
					<dim>512</dim>
					<dim>32</dim>
					<dim>57</dim>
				</port>
				<port id="1" precision="FP32">
					<dim>512</dim>
					<dim>512</dim>
					<dim>1</dim>
					<dim>1</dim>
				</port>
			</input>
			<output>
				<port id="2" precision="FP32">
					<dim>1</dim>
					<dim>512</dim>
					<dim>32</dim>
					<dim>57</dim>
				</port>
			</output>
		</layer>
		<layer id="164" name="data_add_91089113_compressed" type="Const" version="opset1">
			<data element_type="f16" shape="1, 512, 1, 1" offset="3210504" size="1024"/>
			<output>
				<port id="0" precision="FP16">
					<dim>1</dim>
					<dim>512</dim>
					<dim>1</dim>
					<dim>1</dim>
				</port>
			</output>
		</layer>
		<layer id="165" name="data_add_91089113" type="Convert" version="opset1">
			<data destination_type="f32"/>
			<rt_info>
				<attribute name="decompression" version="0"/>
				<attribute name="fused_names" version="0" value="data_add_91089113"/>
			</rt_info>
			<input>
				<port id="0" precision="FP16">
					<dim>1</dim>
					<dim>512</dim>
					<dim>1</dim>
					<dim>1</dim>
				</port>
			</input>
			<output>
				<port id="1" precision="FP32">
					<dim>1</dim>
					<dim>512</dim>
					<dim>1</dim>
					<dim>1</dim>
				</port>
			</output>
		</layer>
		<layer id="166" name="conv5_5/sep/bn/variance/Fused_Add_" type="Add" version="opset1">
			<data auto_broadcast="numpy"/>
			<rt_info>
				<attribute name="fused_names" version="0" value="conv5_5/sep/bn/variance/Fused_Add_"/>
			</rt_info>
			<input>
				<port id="0" precision="FP32">
					<dim>1</dim>
					<dim>512</dim>
					<dim>32</dim>
					<dim>57</dim>
				</port>
				<port id="1" precision="FP32">
					<dim>1</dim>
					<dim>512</dim>
					<dim>1</dim>
					<dim>1</dim>
				</port>
			</input>
			<output>
				<port id="2" precision="FP32" names="conv5_5/sep">
					<dim>1</dim>
					<dim>512</dim>
					<dim>32</dim>
					<dim>57</dim>
				</port>
			</output>
		</layer>
		<layer id="167" name="relu5_5/sep" type="ReLU" version="opset1">
			<rt_info>
				<attribute name="fused_names" version="0" value="relu5_5/sep"/>
			</rt_info>
			<input>
				<port id="0" precision="FP32">
					<dim>1</dim>
					<dim>512</dim>
					<dim>32</dim>
					<dim>57</dim>
				</port>
			</input>
			<output>
				<port id="1" precision="FP32" names="conv5_5/sep">
					<dim>1</dim>
					<dim>512</dim>
					<dim>32</dim>
					<dim>57</dim>
				</port>
			</output>
		</layer>
		<layer id="168" name="235_compressed" type="Const" version="opset1">
			<data element_type="f16" shape="128, 512, 1, 1" offset="3211528" size="131072"/>
			<output>
				<port id="0" precision="FP16">
					<dim>128</dim>
					<dim>512</dim>
					<dim>1</dim>
					<dim>1</dim>
				</port>
			</output>
		</layer>
		<layer id="169" name="235" type="Convert" version="opset1">
			<data destination_type="f32"/>
			<rt_info>
				<attribute name="decompression" version="0"/>
				<attribute name="fused_names" version="0" value="235"/>
			</rt_info>
			<input>
				<port id="0" precision="FP16">
					<dim>128</dim>
					<dim>512</dim>
					<dim>1</dim>
					<dim>1</dim>
				</port>
			</input>
			<output>
				<port id="1" precision="FP32">
					<dim>128</dim>
					<dim>512</dim>
					<dim>1</dim>
					<dim>1</dim>
				</port>
			</output>
		</layer>
		<layer id="170" name="conv4_3_CPM/al/WithoutBiases" type="Convolution" version="opset1">
			<data strides="1, 1" dilations="1, 1" pads_begin="0, 0" pads_end="0, 0" auto_pad="explicit"/>
			<rt_info>
				<attribute name="fused_names" version="0" value="conv4_3_CPM/al/WithoutBiases"/>
			</rt_info>
			<input>
				<port id="0" precision="FP32">
					<dim>1</dim>
					<dim>512</dim>
					<dim>32</dim>
					<dim>57</dim>
				</port>
				<port id="1" precision="FP32">
					<dim>128</dim>
					<dim>512</dim>
					<dim>1</dim>
					<dim>1</dim>
				</port>
			</input>
			<output>
				<port id="2" precision="FP32">
					<dim>1</dim>
					<dim>128</dim>
					<dim>32</dim>
					<dim>57</dim>
				</port>
			</output>
		</layer>
		<layer id="171" name="conv4_3_CPM/al/Dims5096_compressed" type="Const" version="opset1">
			<data element_type="f16" shape="1, 128, 1, 1" offset="3342600" size="256"/>
			<output>
				<port id="0" precision="FP16">
					<dim>1</dim>
					<dim>128</dim>
					<dim>1</dim>
					<dim>1</dim>
				</port>
			</output>
		</layer>
		<layer id="172" name="conv4_3_CPM/al/Dims5096" type="Convert" version="opset1">
			<data destination_type="f32"/>
			<rt_info>
				<attribute name="decompression" version="0"/>
				<attribute name="fused_names" version="0" value="conv4_3_CPM/al/Dims5096"/>
			</rt_info>
			<input>
				<port id="0" precision="FP16">
					<dim>1</dim>
					<dim>128</dim>
					<dim>1</dim>
					<dim>1</dim>
				</port>
			</input>
			<output>
				<port id="1" precision="FP32">
					<dim>1</dim>
					<dim>128</dim>
					<dim>1</dim>
					<dim>1</dim>
				</port>
			</output>
		</layer>
		<layer id="173" name="conv4_3_CPM/al" type="Add" version="opset1">
			<data auto_broadcast="numpy"/>
			<rt_info>
				<attribute name="fused_names" version="0" value="conv4_3_CPM/al"/>
			</rt_info>
			<input>
				<port id="0" precision="FP32">
					<dim>1</dim>
					<dim>128</dim>
					<dim>32</dim>
					<dim>57</dim>
				</port>
				<port id="1" precision="FP32">
					<dim>1</dim>
					<dim>128</dim>
					<dim>1</dim>
					<dim>1</dim>
				</port>
			</input>
			<output>
				<port id="2" precision="FP32" names="conv4_3_CPM/al">
					<dim>1</dim>
					<dim>128</dim>
					<dim>32</dim>
					<dim>57</dim>
				</port>
			</output>
		</layer>
		<layer id="174" name="relu4_3_CPM/al" type="Elu" version="opset1">
			<data alpha="1"/>
			<rt_info>
				<attribute name="fused_names" version="0" value="relu4_3_CPM/al"/>
			</rt_info>
			<input>
				<port id="0" precision="FP32">
					<dim>1</dim>
					<dim>128</dim>
					<dim>32</dim>
					<dim>57</dim>
				</port>
			</input>
			<output>
				<port id="1" precision="FP32" names="conv4_3_CPM/al">
					<dim>1</dim>
					<dim>128</dim>
					<dim>32</dim>
					<dim>57</dim>
				</port>
			</output>
		</layer>
		<layer id="175" name="393_compressed" type="Const" version="opset1">
			<data element_type="f16" shape="128, 128, 1, 1" offset="3342856" size="32768"/>
			<output>
				<port id="0" precision="FP16">
					<dim>128</dim>
					<dim>128</dim>
					<dim>1</dim>
					<dim>1</dim>
				</port>
			</output>
		</layer>
		<layer id="176" name="393" type="Convert" version="opset1">
			<data destination_type="f32"/>
			<rt_info>
				<attribute name="decompression" version="0"/>
				<attribute name="fused_names" version="0" value="393"/>
			</rt_info>
			<input>
				<port id="0" precision="FP16">
					<dim>128</dim>
					<dim>128</dim>
					<dim>1</dim>
					<dim>1</dim>
				</port>
			</input>
			<output>
				<port id="1" precision="FP32">
					<dim>128</dim>
					<dim>128</dim>
					<dim>1</dim>
					<dim>1</dim>
				</port>
			</output>
		</layer>
		<layer id="177" name="conv4_3_CPM/red/WithoutBiases" type="Convolution" version="opset1">
			<data strides="1, 1" dilations="1, 1" pads_begin="0, 0" pads_end="0, 0" auto_pad="explicit"/>
			<rt_info>
				<attribute name="fused_names" version="0" value="conv4_3_CPM/red/WithoutBiases"/>
			</rt_info>
			<input>
				<port id="0" precision="FP32">
					<dim>1</dim>
					<dim>128</dim>
					<dim>32</dim>
					<dim>57</dim>
				</port>
				<port id="1" precision="FP32">
					<dim>128</dim>
					<dim>128</dim>
					<dim>1</dim>
					<dim>1</dim>
				</port>
			</input>
			<output>
				<port id="2" precision="FP32">
					<dim>1</dim>
					<dim>128</dim>
					<dim>32</dim>
					<dim>57</dim>
				</port>
			</output>
		</layer>
		<layer id="178" name="conv4_3_CPM/red/Dims5198_compressed" type="Const" version="opset1">
			<data element_type="f16" shape="1, 128, 1, 1" offset="3375624" size="256"/>
			<output>
				<port id="0" precision="FP16">
					<dim>1</dim>
					<dim>128</dim>
					<dim>1</dim>
					<dim>1</dim>
				</port>
			</output>
		</layer>
		<layer id="179" name="conv4_3_CPM/red/Dims5198" type="Convert" version="opset1">
			<data destination_type="f32"/>
			<rt_info>
				<attribute name="decompression" version="0"/>
				<attribute name="fused_names" version="0" value="conv4_3_CPM/red/Dims5198"/>
			</rt_info>
			<input>
				<port id="0" precision="FP16">
					<dim>1</dim>
					<dim>128</dim>
					<dim>1</dim>
					<dim>1</dim>
				</port>
			</input>
			<output>
				<port id="1" precision="FP32">
					<dim>1</dim>
					<dim>128</dim>
					<dim>1</dim>
					<dim>1</dim>
				</port>
			</output>
		</layer>
		<layer id="180" name="conv4_3_CPM/red" type="Add" version="opset1">
			<data auto_broadcast="numpy"/>
			<rt_info>
				<attribute name="fused_names" version="0" value="conv4_3_CPM/red"/>
			</rt_info>
			<input>
				<port id="0" precision="FP32">
					<dim>1</dim>
					<dim>128</dim>
					<dim>32</dim>
					<dim>57</dim>
				</port>
				<port id="1" precision="FP32">
					<dim>1</dim>
					<dim>128</dim>
					<dim>1</dim>
					<dim>1</dim>
				</port>
			</input>
			<output>
				<port id="2" precision="FP32" names="conv4_3_CPM/red">
					<dim>1</dim>
					<dim>128</dim>
					<dim>32</dim>
					<dim>57</dim>
				</port>
			</output>
		</layer>
		<layer id="181" name="relu4_3_CPM/red" type="Elu" version="opset1">
			<data alpha="1"/>
			<rt_info>
				<attribute name="fused_names" version="0" value="relu4_3_CPM/red"/>
			</rt_info>
			<input>
				<port id="0" precision="FP32">
					<dim>1</dim>
					<dim>128</dim>
					<dim>32</dim>
					<dim>57</dim>
				</port>
			</input>
			<output>
				<port id="1" precision="FP32" names="conv4_3_CPM/red">
					<dim>1</dim>
					<dim>128</dim>
					<dim>32</dim>
					<dim>57</dim>
				</port>
			</output>
		</layer>
		<layer id="182" name="241_compressed" type="Const" version="opset1">
			<data element_type="f16" shape="128, 1, 1, 3, 3" offset="3375880" size="2304"/>
			<output>
				<port id="0" precision="FP16">
					<dim>128</dim>
					<dim>1</dim>
					<dim>1</dim>
					<dim>3</dim>
					<dim>3</dim>
				</port>
			</output>
		</layer>
		<layer id="183" name="241" type="Convert" version="opset1">
			<data destination_type="f32"/>
			<rt_info>
				<attribute name="decompression" version="0"/>
				<attribute name="fused_names" version="0" value="241"/>
			</rt_info>
			<input>
				<port id="0" precision="FP16">
					<dim>128</dim>
					<dim>1</dim>
					<dim>1</dim>
					<dim>3</dim>
					<dim>3</dim>
				</port>
			</input>
			<output>
				<port id="1" precision="FP32">
					<dim>128</dim>
					<dim>1</dim>
					<dim>1</dim>
					<dim>3</dim>
					<dim>3</dim>
				</port>
			</output>
		</layer>
		<layer id="184" name="conv4_3_CPM/dw1" type="GroupConvolution" version="opset1">
			<data strides="1, 1" pads_begin="1, 1" pads_end="1, 1" dilations="1, 1" auto_pad="explicit"/>
			<rt_info>
				<attribute name="fused_names" version="0" value="conv4_3_CPM/dw1"/>
			</rt_info>
			<input>
				<port id="0" precision="FP32">
					<dim>1</dim>
					<dim>128</dim>
					<dim>32</dim>
					<dim>57</dim>
				</port>
				<port id="1" precision="FP32">
					<dim>128</dim>
					<dim>1</dim>
					<dim>1</dim>
					<dim>3</dim>
					<dim>3</dim>
				</port>
			</input>
			<output>
				<port id="2" precision="FP32" names="conv4_3_CPM/dw1">
					<dim>1</dim>
					<dim>128</dim>
					<dim>32</dim>
					<dim>57</dim>
				</port>
			</output>
		</layer>
		<layer id="185" name="relu4_3_CPM/dw1" type="Elu" version="opset1">
			<data alpha="1"/>
			<rt_info>
				<attribute name="fused_names" version="0" value="relu4_3_CPM/dw1"/>
			</rt_info>
			<input>
				<port id="0" precision="FP32">
					<dim>1</dim>
					<dim>128</dim>
					<dim>32</dim>
					<dim>57</dim>
				</port>
			</input>
			<output>
				<port id="1" precision="FP32" names="conv4_3_CPM/dw1">
					<dim>1</dim>
					<dim>128</dim>
					<dim>32</dim>
					<dim>57</dim>
				</port>
			</output>
		</layer>
		<layer id="186" name="302_compressed" type="Const" version="opset1">
			<data element_type="f16" shape="128, 128, 1, 1" offset="3378184" size="32768"/>
			<output>
				<port id="0" precision="FP16">
					<dim>128</dim>
					<dim>128</dim>
					<dim>1</dim>
					<dim>1</dim>
				</port>
			</output>
		</layer>
		<layer id="187" name="302" type="Convert" version="opset1">
			<data destination_type="f32"/>
			<rt_info>
				<attribute name="decompression" version="0"/>
				<attribute name="fused_names" version="0" value="302"/>
			</rt_info>
			<input>
				<port id="0" precision="FP16">
					<dim>128</dim>
					<dim>128</dim>
					<dim>1</dim>
					<dim>1</dim>
				</port>
			</input>
			<output>
				<port id="1" precision="FP32">
					<dim>128</dim>
					<dim>128</dim>
					<dim>1</dim>
					<dim>1</dim>
				</port>
			</output>
		</layer>
		<layer id="188" name="conv4_3_CPM/dw1/1x1/WithoutBiases" type="Convolution" version="opset1">
			<data strides="1, 1" dilations="1, 1" pads_begin="0, 0" pads_end="0, 0" auto_pad="explicit"/>
			<rt_info>
				<attribute name="fused_names" version="0" value="conv4_3_CPM/dw1/1x1/WithoutBiases"/>
			</rt_info>
			<input>
				<port id="0" precision="FP32">
					<dim>1</dim>
					<dim>128</dim>
					<dim>32</dim>
					<dim>57</dim>
				</port>
				<port id="1" precision="FP32">
					<dim>128</dim>
					<dim>128</dim>
					<dim>1</dim>
					<dim>1</dim>
				</port>
			</input>
			<output>
				<port id="2" precision="FP32">
					<dim>1</dim>
					<dim>128</dim>
					<dim>32</dim>
					<dim>57</dim>
				</port>
			</output>
		</layer>
		<layer id="189" name="conv4_3_CPM/dw1/1x1/Dims5054_compressed" type="Const" version="opset1">
			<data element_type="f16" shape="1, 128, 1, 1" offset="3410952" size="256"/>
			<output>
				<port id="0" precision="FP16">
					<dim>1</dim>
					<dim>128</dim>
					<dim>1</dim>
					<dim>1</dim>
				</port>
			</output>
		</layer>
		<layer id="190" name="conv4_3_CPM/dw1/1x1/Dims5054" type="Convert" version="opset1">
			<data destination_type="f32"/>
			<rt_info>
				<attribute name="decompression" version="0"/>
				<attribute name="fused_names" version="0" value="conv4_3_CPM/dw1/1x1/Dims5054"/>
			</rt_info>
			<input>
				<port id="0" precision="FP16">
					<dim>1</dim>
					<dim>128</dim>
					<dim>1</dim>
					<dim>1</dim>
				</port>
			</input>
			<output>
				<port id="1" precision="FP32">
					<dim>1</dim>
					<dim>128</dim>
					<dim>1</dim>
					<dim>1</dim>
				</port>
			</output>
		</layer>
		<layer id="191" name="conv4_3_CPM/dw1/1x1" type="Add" version="opset1">
			<data auto_broadcast="numpy"/>
			<rt_info>
				<attribute name="fused_names" version="0" value="conv4_3_CPM/dw1/1x1"/>
			</rt_info>
			<input>
				<port id="0" precision="FP32">
					<dim>1</dim>
					<dim>128</dim>
					<dim>32</dim>
					<dim>57</dim>
				</port>
				<port id="1" precision="FP32">
					<dim>1</dim>
					<dim>128</dim>
					<dim>1</dim>
					<dim>1</dim>
				</port>
			</input>
			<output>
				<port id="2" precision="FP32" names="conv4_3_CPM/dw1/1x1">
					<dim>1</dim>
					<dim>128</dim>
					<dim>32</dim>
					<dim>57</dim>
				</port>
			</output>
		</layer>
		<layer id="192" name="relu/conv4_3_CPM/dw1/1x1" type="Elu" version="opset1">
			<data alpha="1"/>
			<rt_info>
				<attribute name="fused_names" version="0" value="relu/conv4_3_CPM/dw1/1x1"/>
			</rt_info>
			<input>
				<port id="0" precision="FP32">
					<dim>1</dim>
					<dim>128</dim>
					<dim>32</dim>
					<dim>57</dim>
				</port>
			</input>
			<output>
				<port id="1" precision="FP32" names="conv4_3_CPM/dw1/1x1">
					<dim>1</dim>
					<dim>128</dim>
					<dim>32</dim>
					<dim>57</dim>
				</port>
			</output>
		</layer>
		<layer id="193" name="232_compressed" type="Const" version="opset1">
			<data element_type="f16" shape="128, 1, 1, 3, 3" offset="3411208" size="2304"/>
			<output>
				<port id="0" precision="FP16">
					<dim>128</dim>
					<dim>1</dim>
					<dim>1</dim>
					<dim>3</dim>
					<dim>3</dim>
				</port>
			</output>
		</layer>
		<layer id="194" name="232" type="Convert" version="opset1">
			<data destination_type="f32"/>
			<rt_info>
				<attribute name="decompression" version="0"/>
				<attribute name="fused_names" version="0" value="232"/>
			</rt_info>
			<input>
				<port id="0" precision="FP16">
					<dim>128</dim>
					<dim>1</dim>
					<dim>1</dim>
					<dim>3</dim>
					<dim>3</dim>
				</port>
			</input>
			<output>
				<port id="1" precision="FP32">
					<dim>128</dim>
					<dim>1</dim>
					<dim>1</dim>
					<dim>3</dim>
					<dim>3</dim>
				</port>
			</output>
		</layer>
		<layer id="195" name="conv4_3_CPM/dw2" type="GroupConvolution" version="opset1">
			<data strides="1, 1" pads_begin="1, 1" pads_end="1, 1" dilations="1, 1" auto_pad="explicit"/>
			<rt_info>
				<attribute name="fused_names" version="0" value="conv4_3_CPM/dw2"/>
			</rt_info>
			<input>
				<port id="0" precision="FP32">
					<dim>1</dim>
					<dim>128</dim>
					<dim>32</dim>
					<dim>57</dim>
				</port>
				<port id="1" precision="FP32">
					<dim>128</dim>
					<dim>1</dim>
					<dim>1</dim>
					<dim>3</dim>
					<dim>3</dim>
				</port>
			</input>
			<output>
				<port id="2" precision="FP32" names="conv4_3_CPM/dw2">
					<dim>1</dim>
					<dim>128</dim>
					<dim>32</dim>
					<dim>57</dim>
				</port>
			</output>
		</layer>
		<layer id="196" name="relu4_3_CPM/dw2" type="Elu" version="opset1">
			<data alpha="1"/>
			<rt_info>
				<attribute name="fused_names" version="0" value="relu4_3_CPM/dw2"/>
			</rt_info>
			<input>
				<port id="0" precision="FP32">
					<dim>1</dim>
					<dim>128</dim>
					<dim>32</dim>
					<dim>57</dim>
				</port>
			</input>
			<output>
				<port id="1" precision="FP32" names="conv4_3_CPM/dw2">
					<dim>1</dim>
					<dim>128</dim>
					<dim>32</dim>
					<dim>57</dim>
				</port>
			</output>
		</layer>
		<layer id="197" name="299_compressed" type="Const" version="opset1">
			<data element_type="f16" shape="128, 128, 1, 1" offset="3413512" size="32768"/>
			<output>
				<port id="0" precision="FP16">
					<dim>128</dim>
					<dim>128</dim>
					<dim>1</dim>
					<dim>1</dim>
				</port>
			</output>
		</layer>
		<layer id="198" name="299" type="Convert" version="opset1">
			<data destination_type="f32"/>
			<rt_info>
				<attribute name="decompression" version="0"/>
				<attribute name="fused_names" version="0" value="299"/>
			</rt_info>
			<input>
				<port id="0" precision="FP16">
					<dim>128</dim>
					<dim>128</dim>
					<dim>1</dim>
					<dim>1</dim>
				</port>
			</input>
			<output>
				<port id="1" precision="FP32">
					<dim>128</dim>
					<dim>128</dim>
					<dim>1</dim>
					<dim>1</dim>
				</port>
			</output>
		</layer>
		<layer id="199" name="conv4_3_CPM/dw2/1x1/WithoutBiases" type="Convolution" version="opset1">
			<data strides="1, 1" dilations="1, 1" pads_begin="0, 0" pads_end="0, 0" auto_pad="explicit"/>
			<rt_info>
				<attribute name="fused_names" version="0" value="conv4_3_CPM/dw2/1x1/WithoutBiases"/>
			</rt_info>
			<input>
				<port id="0" precision="FP32">
					<dim>1</dim>
					<dim>128</dim>
					<dim>32</dim>
					<dim>57</dim>
				</port>
				<port id="1" precision="FP32">
					<dim>128</dim>
					<dim>128</dim>
					<dim>1</dim>
					<dim>1</dim>
				</port>
			</input>
			<output>
				<port id="2" precision="FP32">
					<dim>1</dim>
					<dim>128</dim>
					<dim>32</dim>
					<dim>57</dim>
				</port>
			</output>
		</layer>
		<layer id="200" name="conv4_3_CPM/dw2/1x1/Dims5048_compressed" type="Const" version="opset1">
			<data element_type="f16" shape="1, 128, 1, 1" offset="3446280" size="256"/>
			<output>
				<port id="0" precision="FP16">
					<dim>1</dim>
					<dim>128</dim>
					<dim>1</dim>
					<dim>1</dim>
				</port>
			</output>
		</layer>
		<layer id="201" name="conv4_3_CPM/dw2/1x1/Dims5048" type="Convert" version="opset1">
			<data destination_type="f32"/>
			<rt_info>
				<attribute name="decompression" version="0"/>
				<attribute name="fused_names" version="0" value="conv4_3_CPM/dw2/1x1/Dims5048"/>
			</rt_info>
			<input>
				<port id="0" precision="FP16">
					<dim>1</dim>
					<dim>128</dim>
					<dim>1</dim>
					<dim>1</dim>
				</port>
			</input>
			<output>
				<port id="1" precision="FP32">
					<dim>1</dim>
					<dim>128</dim>
					<dim>1</dim>
					<dim>1</dim>
				</port>
			</output>
		</layer>
		<layer id="202" name="conv4_3_CPM/dw2/1x1" type="Add" version="opset1">
			<data auto_broadcast="numpy"/>
			<rt_info>
				<attribute name="fused_names" version="0" value="conv4_3_CPM/dw2/1x1"/>
			</rt_info>
			<input>
				<port id="0" precision="FP32">
					<dim>1</dim>
					<dim>128</dim>
					<dim>32</dim>
					<dim>57</dim>
				</port>
				<port id="1" precision="FP32">
					<dim>1</dim>
					<dim>128</dim>
					<dim>1</dim>
					<dim>1</dim>
				</port>
			</input>
			<output>
				<port id="2" precision="FP32" names="conv4_3_CPM/dw2/1x1">
					<dim>1</dim>
					<dim>128</dim>
					<dim>32</dim>
					<dim>57</dim>
				</port>
			</output>
		</layer>
		<layer id="203" name="relu/conv4_3_CPM/dw2/1x1" type="Elu" version="opset1">
			<data alpha="1"/>
			<rt_info>
				<attribute name="fused_names" version="0" value="relu/conv4_3_CPM/dw2/1x1"/>
			</rt_info>
			<input>
				<port id="0" precision="FP32">
					<dim>1</dim>
					<dim>128</dim>
					<dim>32</dim>
					<dim>57</dim>
				</port>
			</input>
			<output>
				<port id="1" precision="FP32" names="conv4_3_CPM/dw2/1x1">
					<dim>1</dim>
					<dim>128</dim>
					<dim>32</dim>
					<dim>57</dim>
				</port>
			</output>
		</layer>
		<layer id="204" name="308_compressed" type="Const" version="opset1">
			<data element_type="f16" shape="128, 1, 1, 3, 3" offset="3446536" size="2304"/>
			<output>
				<port id="0" precision="FP16">
					<dim>128</dim>
					<dim>1</dim>
					<dim>1</dim>
					<dim>3</dim>
					<dim>3</dim>
				</port>
			</output>
		</layer>
		<layer id="205" name="308" type="Convert" version="opset1">
			<data destination_type="f32"/>
			<rt_info>
				<attribute name="decompression" version="0"/>
				<attribute name="fused_names" version="0" value="308"/>
			</rt_info>
			<input>
				<port id="0" precision="FP16">
					<dim>128</dim>
					<dim>1</dim>
					<dim>1</dim>
					<dim>3</dim>
					<dim>3</dim>
				</port>
			</input>
			<output>
				<port id="1" precision="FP32">
					<dim>128</dim>
					<dim>1</dim>
					<dim>1</dim>
					<dim>3</dim>
					<dim>3</dim>
				</port>
			</output>
		</layer>
		<layer id="206" name="conv4_3_CPM/dw3" type="GroupConvolution" version="opset1">
			<data strides="1, 1" pads_begin="1, 1" pads_end="1, 1" dilations="1, 1" auto_pad="explicit"/>
			<rt_info>
				<attribute name="fused_names" version="0" value="conv4_3_CPM/dw3"/>
			</rt_info>
			<input>
				<port id="0" precision="FP32">
					<dim>1</dim>
					<dim>128</dim>
					<dim>32</dim>
					<dim>57</dim>
				</port>
				<port id="1" precision="FP32">
					<dim>128</dim>
					<dim>1</dim>
					<dim>1</dim>
					<dim>3</dim>
					<dim>3</dim>
				</port>
			</input>
			<output>
				<port id="2" precision="FP32" names="conv4_3_CPM/dw3">
					<dim>1</dim>
					<dim>128</dim>
					<dim>32</dim>
					<dim>57</dim>
				</port>
			</output>
		</layer>
		<layer id="207" name="relu4_3_CPM/dw3" type="Elu" version="opset1">
			<data alpha="1"/>
			<rt_info>
				<attribute name="fused_names" version="0" value="relu4_3_CPM/dw3"/>
			</rt_info>
			<input>
				<port id="0" precision="FP32">
					<dim>1</dim>
					<dim>128</dim>
					<dim>32</dim>
					<dim>57</dim>
				</port>
			</input>
			<output>
				<port id="1" precision="FP32" names="conv4_3_CPM/dw3">
					<dim>1</dim>
					<dim>128</dim>
					<dim>32</dim>
					<dim>57</dim>
				</port>
			</output>
		</layer>
		<layer id="208" name="441_compressed" type="Const" version="opset1">
			<data element_type="f16" shape="128, 128, 1, 1" offset="3448840" size="32768"/>
			<output>
				<port id="0" precision="FP16">
					<dim>128</dim>
					<dim>128</dim>
					<dim>1</dim>
					<dim>1</dim>
				</port>
			</output>
		</layer>
		<layer id="209" name="441" type="Convert" version="opset1">
			<data destination_type="f32"/>
			<rt_info>
				<attribute name="decompression" version="0"/>
				<attribute name="fused_names" version="0" value="441"/>
			</rt_info>
			<input>
				<port id="0" precision="FP16">
					<dim>128</dim>
					<dim>128</dim>
					<dim>1</dim>
					<dim>1</dim>
				</port>
			</input>
			<output>
				<port id="1" precision="FP32">
					<dim>128</dim>
					<dim>128</dim>
					<dim>1</dim>
					<dim>1</dim>
				</port>
			</output>
		</layer>
		<layer id="210" name="conv4_3_CPM/inc/WithoutBiases" type="Convolution" version="opset1">
			<data strides="1, 1" dilations="1, 1" pads_begin="0, 0" pads_end="0, 0" auto_pad="explicit"/>
			<rt_info>
				<attribute name="fused_names" version="0" value="conv4_3_CPM/inc/WithoutBiases"/>
			</rt_info>
			<input>
				<port id="0" precision="FP32">
					<dim>1</dim>
					<dim>128</dim>
					<dim>32</dim>
					<dim>57</dim>
				</port>
				<port id="1" precision="FP32">
					<dim>128</dim>
					<dim>128</dim>
					<dim>1</dim>
					<dim>1</dim>
				</port>
			</input>
			<output>
				<port id="2" precision="FP32">
					<dim>1</dim>
					<dim>128</dim>
					<dim>32</dim>
					<dim>57</dim>
				</port>
			</output>
		</layer>
		<layer id="211" name="conv4_3_CPM/inc/Dims5090_compressed" type="Const" version="opset1">
			<data element_type="f16" shape="1, 128, 1, 1" offset="3481608" size="256"/>
			<output>
				<port id="0" precision="FP16">
					<dim>1</dim>
					<dim>128</dim>
					<dim>1</dim>
					<dim>1</dim>
				</port>
			</output>
		</layer>
		<layer id="212" name="conv4_3_CPM/inc/Dims5090" type="Convert" version="opset1">
			<data destination_type="f32"/>
			<rt_info>
				<attribute name="decompression" version="0"/>
				<attribute name="fused_names" version="0" value="conv4_3_CPM/inc/Dims5090"/>
			</rt_info>
			<input>
				<port id="0" precision="FP16">
					<dim>1</dim>
					<dim>128</dim>
					<dim>1</dim>
					<dim>1</dim>
				</port>
			</input>
			<output>
				<port id="1" precision="FP32">
					<dim>1</dim>
					<dim>128</dim>
					<dim>1</dim>
					<dim>1</dim>
				</port>
			</output>
		</layer>
		<layer id="213" name="conv4_3_CPM/inc" type="Add" version="opset1">
			<data auto_broadcast="numpy"/>
			<rt_info>
				<attribute name="fused_names" version="0" value="conv4_3_CPM/inc"/>
			</rt_info>
			<input>
				<port id="0" precision="FP32">
					<dim>1</dim>
					<dim>128</dim>
					<dim>32</dim>
					<dim>57</dim>
				</port>
				<port id="1" precision="FP32">
					<dim>1</dim>
					<dim>128</dim>
					<dim>1</dim>
					<dim>1</dim>
				</port>
			</input>
			<output>
				<port id="2" precision="FP32" names="conv4_3_CPM/inc">
					<dim>1</dim>
					<dim>128</dim>
					<dim>32</dim>
					<dim>57</dim>
				</port>
			</output>
		</layer>
		<layer id="214" name="relu4_3_CPM/inc" type="Elu" version="opset1">
			<data alpha="1"/>
			<rt_info>
				<attribute name="fused_names" version="0" value="relu4_3_CPM/inc"/>
			</rt_info>
			<input>
				<port id="0" precision="FP32">
					<dim>1</dim>
					<dim>128</dim>
					<dim>32</dim>
					<dim>57</dim>
				</port>
			</input>
			<output>
				<port id="1" precision="FP32" names="conv4_3_CPM/inc">
					<dim>1</dim>
					<dim>128</dim>
					<dim>32</dim>
					<dim>57</dim>
				</port>
			</output>
		</layer>
		<layer id="215" name="conv4_3_CPM/res" type="Add" version="opset1">
			<data auto_broadcast="numpy"/>
			<rt_info>
				<attribute name="fused_names" version="0" value="conv4_3_CPM/res"/>
			</rt_info>
			<input>
				<port id="0" precision="FP32">
					<dim>1</dim>
					<dim>128</dim>
					<dim>32</dim>
					<dim>57</dim>
				</port>
				<port id="1" precision="FP32">
					<dim>1</dim>
					<dim>128</dim>
					<dim>32</dim>
					<dim>57</dim>
				</port>
			</input>
			<output>
				<port id="2" precision="FP32" names="conv4_3_CPM/res">
					<dim>1</dim>
					<dim>128</dim>
					<dim>32</dim>
					<dim>57</dim>
				</port>
			</output>
		</layer>
		<layer id="216" name="425_compressed" type="Const" version="opset1">
			<data element_type="f16" shape="128, 128, 3, 3" offset="3481864" size="294912"/>
			<output>
				<port id="0" precision="FP16">
					<dim>128</dim>
					<dim>128</dim>
					<dim>3</dim>
					<dim>3</dim>
				</port>
			</output>
		</layer>
		<layer id="217" name="425" type="Convert" version="opset1">
			<data destination_type="f32"/>
			<rt_info>
				<attribute name="decompression" version="0"/>
				<attribute name="fused_names" version="0" value="425"/>
			</rt_info>
			<input>
				<port id="0" precision="FP16">
					<dim>128</dim>
					<dim>128</dim>
					<dim>3</dim>
					<dim>3</dim>
				</port>
			</input>
			<output>
				<port id="1" precision="FP32">
					<dim>128</dim>
					<dim>128</dim>
					<dim>3</dim>
					<dim>3</dim>
				</port>
			</output>
		</layer>
		<layer id="218" name="conv4_4_CPM/WithoutBiases" type="Convolution" version="opset1">
			<data strides="1, 1" dilations="1, 1" pads_begin="1, 1" pads_end="1, 1" auto_pad="explicit"/>
			<rt_info>
				<attribute name="fused_names" version="0" value="conv4_4_CPM/WithoutBiases"/>
			</rt_info>
			<input>
				<port id="0" precision="FP32">
					<dim>1</dim>
					<dim>128</dim>
					<dim>32</dim>
					<dim>57</dim>
				</port>
				<port id="1" precision="FP32">
					<dim>128</dim>
					<dim>128</dim>
					<dim>3</dim>
					<dim>3</dim>
				</port>
			</input>
			<output>
				<port id="2" precision="FP32">
					<dim>1</dim>
					<dim>128</dim>
					<dim>32</dim>
					<dim>57</dim>
				</port>
			</output>
		</layer>
		<layer id="219" name="conv4_4_CPM/Dims5084_compressed" type="Const" version="opset1">
			<data element_type="f16" shape="1, 128, 1, 1" offset="3776776" size="256"/>
			<output>
				<port id="0" precision="FP16">
					<dim>1</dim>
					<dim>128</dim>
					<dim>1</dim>
					<dim>1</dim>
				</port>
			</output>
		</layer>
		<layer id="220" name="conv4_4_CPM/Dims5084" type="Convert" version="opset1">
			<data destination_type="f32"/>
			<rt_info>
				<attribute name="decompression" version="0"/>
				<attribute name="fused_names" version="0" value="conv4_4_CPM/Dims5084"/>
			</rt_info>
			<input>
				<port id="0" precision="FP16">
					<dim>1</dim>
					<dim>128</dim>
					<dim>1</dim>
					<dim>1</dim>
				</port>
			</input>
			<output>
				<port id="1" precision="FP32">
					<dim>1</dim>
					<dim>128</dim>
					<dim>1</dim>
					<dim>1</dim>
				</port>
			</output>
		</layer>
		<layer id="221" name="conv4_4_CPM" type="Add" version="opset1">
			<data auto_broadcast="numpy"/>
			<rt_info>
				<attribute name="fused_names" version="0" value="conv4_4_CPM"/>
			</rt_info>
			<input>
				<port id="0" precision="FP32">
					<dim>1</dim>
					<dim>128</dim>
					<dim>32</dim>
					<dim>57</dim>
				</port>
				<port id="1" precision="FP32">
					<dim>1</dim>
					<dim>128</dim>
					<dim>1</dim>
					<dim>1</dim>
				</port>
			</input>
			<output>
				<port id="2" precision="FP32" names="conv4_4_CPM">
					<dim>1</dim>
					<dim>128</dim>
					<dim>32</dim>
					<dim>57</dim>
				</port>
			</output>
		</layer>
		<layer id="222" name="relu4_4_CPM" type="ReLU" version="opset1">
			<rt_info>
				<attribute name="fused_names" version="0" value="relu4_4_CPM"/>
			</rt_info>
			<input>
				<port id="0" precision="FP32">
					<dim>1</dim>
					<dim>128</dim>
					<dim>32</dim>
					<dim>57</dim>
				</port>
			</input>
			<output>
				<port id="1" precision="FP32" names="conv4_4_CPM">
					<dim>1</dim>
					<dim>128</dim>
					<dim>32</dim>
					<dim>57</dim>
				</port>
			</output>
		</layer>
		<layer id="223" name="191_compressed" type="Const" version="opset1">
			<data element_type="f16" shape="128, 128, 3, 3" offset="3777032" size="294912"/>
			<output>
				<port id="0" precision="FP16">
					<dim>128</dim>
					<dim>128</dim>
					<dim>3</dim>
					<dim>3</dim>
				</port>
			</output>
		</layer>
		<layer id="224" name="191" type="Convert" version="opset1">
			<data destination_type="f32"/>
			<rt_info>
				<attribute name="decompression" version="0"/>
				<attribute name="fused_names" version="0" value="191"/>
			</rt_info>
			<input>
				<port id="0" precision="FP16">
					<dim>128</dim>
					<dim>128</dim>
					<dim>3</dim>
					<dim>3</dim>
				</port>
			</input>
			<output>
				<port id="1" precision="FP32">
					<dim>128</dim>
					<dim>128</dim>
					<dim>3</dim>
					<dim>3</dim>
				</port>
			</output>
		</layer>
		<layer id="225" name="conv5_1_CPM_L1/WithoutBiases" type="Convolution" version="opset1">
			<data strides="1, 1" dilations="1, 1" pads_begin="1, 1" pads_end="1, 1" auto_pad="explicit"/>
			<rt_info>
				<attribute name="fused_names" version="0" value="conv5_1_CPM_L1/WithoutBiases"/>
			</rt_info>
			<input>
				<port id="0" precision="FP32">
					<dim>1</dim>
					<dim>128</dim>
					<dim>32</dim>
					<dim>57</dim>
				</port>
				<port id="1" precision="FP32">
					<dim>128</dim>
					<dim>128</dim>
					<dim>3</dim>
					<dim>3</dim>
				</port>
			</input>
			<output>
				<port id="2" precision="FP32">
					<dim>1</dim>
					<dim>128</dim>
					<dim>32</dim>
					<dim>57</dim>
				</port>
			</output>
		</layer>
		<layer id="226" name="conv5_1_CPM_L1/Dims5018_compressed" type="Const" version="opset1">
			<data element_type="f16" shape="1, 128, 1, 1" offset="4071944" size="256"/>
			<output>
				<port id="0" precision="FP16">
					<dim>1</dim>
					<dim>128</dim>
					<dim>1</dim>
					<dim>1</dim>
				</port>
			</output>
		</layer>
		<layer id="227" name="conv5_1_CPM_L1/Dims5018" type="Convert" version="opset1">
			<data destination_type="f32"/>
			<rt_info>
				<attribute name="decompression" version="0"/>
				<attribute name="fused_names" version="0" value="conv5_1_CPM_L1/Dims5018"/>
			</rt_info>
			<input>
				<port id="0" precision="FP16">
					<dim>1</dim>
					<dim>128</dim>
					<dim>1</dim>
					<dim>1</dim>
				</port>
			</input>
			<output>
				<port id="1" precision="FP32">
					<dim>1</dim>
					<dim>128</dim>
					<dim>1</dim>
					<dim>1</dim>
				</port>
			</output>
		</layer>
		<layer id="228" name="conv5_1_CPM_L1" type="Add" version="opset1">
			<data auto_broadcast="numpy"/>
			<rt_info>
				<attribute name="fused_names" version="0" value="conv5_1_CPM_L1"/>
			</rt_info>
			<input>
				<port id="0" precision="FP32">
					<dim>1</dim>
					<dim>128</dim>
					<dim>32</dim>
					<dim>57</dim>
				</port>
				<port id="1" precision="FP32">
					<dim>1</dim>
					<dim>128</dim>
					<dim>1</dim>
					<dim>1</dim>
				</port>
			</input>
			<output>
				<port id="2" precision="FP32" names="conv5_1_CPM_L1">
					<dim>1</dim>
					<dim>128</dim>
					<dim>32</dim>
					<dim>57</dim>
				</port>
			</output>
		</layer>
		<layer id="229" name="relu5_1_CPM_L1" type="ReLU" version="opset1">
			<rt_info>
				<attribute name="fused_names" version="0" value="relu5_1_CPM_L1"/>
			</rt_info>
			<input>
				<port id="0" precision="FP32">
					<dim>1</dim>
					<dim>128</dim>
					<dim>32</dim>
					<dim>57</dim>
				</port>
			</input>
			<output>
				<port id="1" precision="FP32" names="conv5_1_CPM_L1">
					<dim>1</dim>
					<dim>128</dim>
					<dim>32</dim>
					<dim>57</dim>
				</port>
			</output>
		</layer>
		<layer id="230" name="281_compressed" type="Const" version="opset1">
			<data element_type="f16" shape="128, 128, 3, 3" offset="4072200" size="294912"/>
			<output>
				<port id="0" precision="FP16">
					<dim>128</dim>
					<dim>128</dim>
					<dim>3</dim>
					<dim>3</dim>
				</port>
			</output>
		</layer>
		<layer id="231" name="281" type="Convert" version="opset1">
			<data destination_type="f32"/>
			<rt_info>
				<attribute name="decompression" version="0"/>
				<attribute name="fused_names" version="0" value="281"/>
			</rt_info>
			<input>
				<port id="0" precision="FP16">
					<dim>128</dim>
					<dim>128</dim>
					<dim>3</dim>
					<dim>3</dim>
				</port>
			</input>
			<output>
				<port id="1" precision="FP32">
					<dim>128</dim>
					<dim>128</dim>
					<dim>3</dim>
					<dim>3</dim>
				</port>
			</output>
		</layer>
		<layer id="232" name="conv5_2_CPM_L1/WithoutBiases" type="Convolution" version="opset1">
			<data strides="1, 1" dilations="1, 1" pads_begin="1, 1" pads_end="1, 1" auto_pad="explicit"/>
			<rt_info>
				<attribute name="fused_names" version="0" value="conv5_2_CPM_L1/WithoutBiases"/>
			</rt_info>
			<input>
				<port id="0" precision="FP32">
					<dim>1</dim>
					<dim>128</dim>
					<dim>32</dim>
					<dim>57</dim>
				</port>
				<port id="1" precision="FP32">
					<dim>128</dim>
					<dim>128</dim>
					<dim>3</dim>
					<dim>3</dim>
				</port>
			</input>
			<output>
				<port id="2" precision="FP32">
					<dim>1</dim>
					<dim>128</dim>
					<dim>32</dim>
					<dim>57</dim>
				</port>
			</output>
		</layer>
		<layer id="233" name="conv5_2_CPM_L1/Dims5132_compressed" type="Const" version="opset1">
			<data element_type="f16" shape="1, 128, 1, 1" offset="4367112" size="256"/>
			<output>
				<port id="0" precision="FP16">
					<dim>1</dim>
					<dim>128</dim>
					<dim>1</dim>
					<dim>1</dim>
				</port>
			</output>
		</layer>
		<layer id="234" name="conv5_2_CPM_L1/Dims5132" type="Convert" version="opset1">
			<data destination_type="f32"/>
			<rt_info>
				<attribute name="decompression" version="0"/>
				<attribute name="fused_names" version="0" value="conv5_2_CPM_L1/Dims5132"/>
			</rt_info>
			<input>
				<port id="0" precision="FP16">
					<dim>1</dim>
					<dim>128</dim>
					<dim>1</dim>
					<dim>1</dim>
				</port>
			</input>
			<output>
				<port id="1" precision="FP32">
					<dim>1</dim>
					<dim>128</dim>
					<dim>1</dim>
					<dim>1</dim>
				</port>
			</output>
		</layer>
		<layer id="235" name="conv5_2_CPM_L1" type="Add" version="opset1">
			<data auto_broadcast="numpy"/>
			<rt_info>
				<attribute name="fused_names" version="0" value="conv5_2_CPM_L1"/>
			</rt_info>
			<input>
				<port id="0" precision="FP32">
					<dim>1</dim>
					<dim>128</dim>
					<dim>32</dim>
					<dim>57</dim>
				</port>
				<port id="1" precision="FP32">
					<dim>1</dim>
					<dim>128</dim>
					<dim>1</dim>
					<dim>1</dim>
				</port>
			</input>
			<output>
				<port id="2" precision="FP32" names="conv5_2_CPM_L1">
					<dim>1</dim>
					<dim>128</dim>
					<dim>32</dim>
					<dim>57</dim>
				</port>
			</output>
		</layer>
		<layer id="236" name="relu5_2_CPM_L1" type="ReLU" version="opset1">
			<rt_info>
				<attribute name="fused_names" version="0" value="relu5_2_CPM_L1"/>
			</rt_info>
			<input>
				<port id="0" precision="FP32">
					<dim>1</dim>
					<dim>128</dim>
					<dim>32</dim>
					<dim>57</dim>
				</port>
			</input>
			<output>
				<port id="1" precision="FP32" names="conv5_2_CPM_L1">
					<dim>1</dim>
					<dim>128</dim>
					<dim>32</dim>
					<dim>57</dim>
				</port>
			</output>
		</layer>
		<layer id="237" name="194_compressed" type="Const" version="opset1">
			<data element_type="f16" shape="128, 128, 3, 3" offset="4367368" size="294912"/>
			<output>
				<port id="0" precision="FP16">
					<dim>128</dim>
					<dim>128</dim>
					<dim>3</dim>
					<dim>3</dim>
				</port>
			</output>
		</layer>
		<layer id="238" name="194" type="Convert" version="opset1">
			<data destination_type="f32"/>
			<rt_info>
				<attribute name="decompression" version="0"/>
				<attribute name="fused_names" version="0" value="194"/>
			</rt_info>
			<input>
				<port id="0" precision="FP16">
					<dim>128</dim>
					<dim>128</dim>
					<dim>3</dim>
					<dim>3</dim>
				</port>
			</input>
			<output>
				<port id="1" precision="FP32">
					<dim>128</dim>
					<dim>128</dim>
					<dim>3</dim>
					<dim>3</dim>
				</port>
			</output>
		</layer>
		<layer id="239" name="conv5_3_CPM_L1/WithoutBiases" type="Convolution" version="opset1">
			<data strides="1, 1" dilations="1, 1" pads_begin="1, 1" pads_end="1, 1" auto_pad="explicit"/>
			<rt_info>
				<attribute name="fused_names" version="0" value="conv5_3_CPM_L1/WithoutBiases"/>
			</rt_info>
			<input>
				<port id="0" precision="FP32">
					<dim>1</dim>
					<dim>128</dim>
					<dim>32</dim>
					<dim>57</dim>
				</port>
				<port id="1" precision="FP32">
					<dim>128</dim>
					<dim>128</dim>
					<dim>3</dim>
					<dim>3</dim>
				</port>
			</input>
			<output>
				<port id="2" precision="FP32">
					<dim>1</dim>
					<dim>128</dim>
					<dim>32</dim>
					<dim>57</dim>
				</port>
			</output>
		</layer>
		<layer id="240" name="conv5_3_CPM_L1/Dims5024_compressed" type="Const" version="opset1">
			<data element_type="f16" shape="1, 128, 1, 1" offset="4662280" size="256"/>
			<output>
				<port id="0" precision="FP16">
					<dim>1</dim>
					<dim>128</dim>
					<dim>1</dim>
					<dim>1</dim>
				</port>
			</output>
		</layer>
		<layer id="241" name="conv5_3_CPM_L1/Dims5024" type="Convert" version="opset1">
			<data destination_type="f32"/>
			<rt_info>
				<attribute name="decompression" version="0"/>
				<attribute name="fused_names" version="0" value="conv5_3_CPM_L1/Dims5024"/>
			</rt_info>
			<input>
				<port id="0" precision="FP16">
					<dim>1</dim>
					<dim>128</dim>
					<dim>1</dim>
					<dim>1</dim>
				</port>
			</input>
			<output>
				<port id="1" precision="FP32">
					<dim>1</dim>
					<dim>128</dim>
					<dim>1</dim>
					<dim>1</dim>
				</port>
			</output>
		</layer>
		<layer id="242" name="conv5_3_CPM_L1" type="Add" version="opset1">
			<data auto_broadcast="numpy"/>
			<rt_info>
				<attribute name="fused_names" version="0" value="conv5_3_CPM_L1"/>
			</rt_info>
			<input>
				<port id="0" precision="FP32">
					<dim>1</dim>
					<dim>128</dim>
					<dim>32</dim>
					<dim>57</dim>
				</port>
				<port id="1" precision="FP32">
					<dim>1</dim>
					<dim>128</dim>
					<dim>1</dim>
					<dim>1</dim>
				</port>
			</input>
			<output>
				<port id="2" precision="FP32" names="conv5_3_CPM_L1">
					<dim>1</dim>
					<dim>128</dim>
					<dim>32</dim>
					<dim>57</dim>
				</port>
			</output>
		</layer>
		<layer id="243" name="relu5_3_CPM_L1" type="ReLU" version="opset1">
			<rt_info>
				<attribute name="fused_names" version="0" value="relu5_3_CPM_L1"/>
			</rt_info>
			<input>
				<port id="0" precision="FP32">
					<dim>1</dim>
					<dim>128</dim>
					<dim>32</dim>
					<dim>57</dim>
				</port>
			</input>
			<output>
				<port id="1" precision="FP32" names="conv5_3_CPM_L1">
					<dim>1</dim>
					<dim>128</dim>
					<dim>32</dim>
					<dim>57</dim>
				</port>
			</output>
		</layer>
		<layer id="244" name="387_compressed" type="Const" version="opset1">
			<data element_type="f16" shape="512, 128, 1, 1" offset="4662536" size="131072"/>
			<output>
				<port id="0" precision="FP16">
					<dim>512</dim>
					<dim>128</dim>
					<dim>1</dim>
					<dim>1</dim>
				</port>
			</output>
		</layer>
		<layer id="245" name="387" type="Convert" version="opset1">
			<data destination_type="f32"/>
			<rt_info>
				<attribute name="decompression" version="0"/>
				<attribute name="fused_names" version="0" value="387"/>
			</rt_info>
			<input>
				<port id="0" precision="FP16">
					<dim>512</dim>
					<dim>128</dim>
					<dim>1</dim>
					<dim>1</dim>
				</port>
			</input>
			<output>
				<port id="1" precision="FP32">
					<dim>512</dim>
					<dim>128</dim>
					<dim>1</dim>
					<dim>1</dim>
				</port>
			</output>
		</layer>
		<layer id="246" name="conv5_4_CPM_L1/WithoutBiases" type="Convolution" version="opset1">
			<data strides="1, 1" dilations="1, 1" pads_begin="0, 0" pads_end="0, 0" auto_pad="explicit"/>
			<rt_info>
				<attribute name="fused_names" version="0" value="conv5_4_CPM_L1/WithoutBiases"/>
			</rt_info>
			<input>
				<port id="0" precision="FP32">
					<dim>1</dim>
					<dim>128</dim>
					<dim>32</dim>
					<dim>57</dim>
				</port>
				<port id="1" precision="FP32">
					<dim>512</dim>
					<dim>128</dim>
					<dim>1</dim>
					<dim>1</dim>
				</port>
			</input>
			<output>
				<port id="2" precision="FP32">
					<dim>1</dim>
					<dim>512</dim>
					<dim>32</dim>
					<dim>57</dim>
				</port>
			</output>
		</layer>
		<layer id="247" name="conv5_4_CPM_L1/Dims5156_compressed" type="Const" version="opset1">
			<data element_type="f16" shape="1, 512, 1, 1" offset="4793608" size="1024"/>
			<output>
				<port id="0" precision="FP16">
					<dim>1</dim>
					<dim>512</dim>
					<dim>1</dim>
					<dim>1</dim>
				</port>
			</output>
		</layer>
		<layer id="248" name="conv5_4_CPM_L1/Dims5156" type="Convert" version="opset1">
			<data destination_type="f32"/>
			<rt_info>
				<attribute name="decompression" version="0"/>
				<attribute name="fused_names" version="0" value="conv5_4_CPM_L1/Dims5156"/>
			</rt_info>
			<input>
				<port id="0" precision="FP16">
					<dim>1</dim>
					<dim>512</dim>
					<dim>1</dim>
					<dim>1</dim>
				</port>
			</input>
			<output>
				<port id="1" precision="FP32">
					<dim>1</dim>
					<dim>512</dim>
					<dim>1</dim>
					<dim>1</dim>
				</port>
			</output>
		</layer>
		<layer id="249" name="conv5_4_CPM_L1" type="Add" version="opset1">
			<data auto_broadcast="numpy"/>
			<rt_info>
				<attribute name="fused_names" version="0" value="conv5_4_CPM_L1"/>
			</rt_info>
			<input>
				<port id="0" precision="FP32">
					<dim>1</dim>
					<dim>512</dim>
					<dim>32</dim>
					<dim>57</dim>
				</port>
				<port id="1" precision="FP32">
					<dim>1</dim>
					<dim>512</dim>
					<dim>1</dim>
					<dim>1</dim>
				</port>
			</input>
			<output>
				<port id="2" precision="FP32" names="conv5_4_CPM_L1">
					<dim>1</dim>
					<dim>512</dim>
					<dim>32</dim>
					<dim>57</dim>
				</port>
			</output>
		</layer>
		<layer id="250" name="relu5_4_CPM_L1" type="ReLU" version="opset1">
			<rt_info>
				<attribute name="fused_names" version="0" value="relu5_4_CPM_L1"/>
			</rt_info>
			<input>
				<port id="0" precision="FP32">
					<dim>1</dim>
					<dim>512</dim>
					<dim>32</dim>
					<dim>57</dim>
				</port>
			</input>
			<output>
				<port id="1" precision="FP32" names="conv5_4_CPM_L1">
					<dim>1</dim>
					<dim>512</dim>
					<dim>32</dim>
					<dim>57</dim>
				</port>
			</output>
		</layer>
		<layer id="251" name="285_compressed" type="Const" version="opset1">
			<data element_type="f16" shape="38, 512, 1, 1" offset="4794632" size="38912"/>
			<output>
				<port id="0" precision="FP16">
					<dim>38</dim>
					<dim>512</dim>
					<dim>1</dim>
					<dim>1</dim>
				</port>
			</output>
		</layer>
		<layer id="252" name="285" type="Convert" version="opset1">
			<data destination_type="f32"/>
			<rt_info>
				<attribute name="decompression" version="0"/>
				<attribute name="fused_names" version="0" value="285"/>
			</rt_info>
			<input>
				<port id="0" precision="FP16">
					<dim>38</dim>
					<dim>512</dim>
					<dim>1</dim>
					<dim>1</dim>
				</port>
			</input>
			<output>
				<port id="1" precision="FP32">
					<dim>38</dim>
					<dim>512</dim>
					<dim>1</dim>
					<dim>1</dim>
				</port>
			</output>
		</layer>
		<layer id="253" name="conv5_5_CPM_L1/WithoutBiases" type="Convolution" version="opset1">
			<data strides="1, 1" dilations="1, 1" pads_begin="0, 0" pads_end="0, 0" auto_pad="explicit"/>
			<rt_info>
				<attribute name="fused_names" version="0" value="conv5_5_CPM_L1/WithoutBiases"/>
			</rt_info>
			<input>
				<port id="0" precision="FP32">
					<dim>1</dim>
					<dim>512</dim>
					<dim>32</dim>
					<dim>57</dim>
				</port>
				<port id="1" precision="FP32">
					<dim>38</dim>
					<dim>512</dim>
					<dim>1</dim>
					<dim>1</dim>
				</port>
			</input>
			<output>
				<port id="2" precision="FP32">
					<dim>1</dim>
					<dim>38</dim>
					<dim>32</dim>
					<dim>57</dim>
				</port>
			</output>
		</layer>
		<layer id="254" name="conv5_5_CPM_L1/Dims5138_compressed" type="Const" version="opset1">
			<data element_type="f16" shape="1, 38, 1, 1" offset="4833544" size="76"/>
			<output>
				<port id="0" precision="FP16">
					<dim>1</dim>
					<dim>38</dim>
					<dim>1</dim>
					<dim>1</dim>
				</port>
			</output>
		</layer>
		<layer id="255" name="conv5_5_CPM_L1/Dims5138" type="Convert" version="opset1">
			<data destination_type="f32"/>
			<rt_info>
				<attribute name="decompression" version="0"/>
				<attribute name="fused_names" version="0" value="conv5_5_CPM_L1/Dims5138"/>
			</rt_info>
			<input>
				<port id="0" precision="FP16">
					<dim>1</dim>
					<dim>38</dim>
					<dim>1</dim>
					<dim>1</dim>
				</port>
			</input>
			<output>
				<port id="1" precision="FP32">
					<dim>1</dim>
					<dim>38</dim>
					<dim>1</dim>
					<dim>1</dim>
				</port>
			</output>
		</layer>
		<layer id="256" name="conv5_5_CPM_L1" type="Add" version="opset1">
			<data auto_broadcast="numpy"/>
			<rt_info>
				<attribute name="fused_names" version="0" value="conv5_5_CPM_L1"/>
			</rt_info>
			<input>
				<port id="0" precision="FP32">
					<dim>1</dim>
					<dim>38</dim>
					<dim>32</dim>
					<dim>57</dim>
				</port>
				<port id="1" precision="FP32">
					<dim>1</dim>
					<dim>38</dim>
					<dim>1</dim>
					<dim>1</dim>
				</port>
			</input>
			<output>
				<port id="2" precision="FP32" names="conv5_5_CPM_L1">
					<dim>1</dim>
					<dim>38</dim>
					<dim>32</dim>
					<dim>57</dim>
				</port>
			</output>
		</layer>
		<layer id="257" name="399_compressed" type="Const" version="opset1">
			<data element_type="f16" shape="512, 128, 1, 1" offset="4833620" size="131072"/>
			<output>
				<port id="0" precision="FP16">
					<dim>512</dim>
					<dim>128</dim>
					<dim>1</dim>
					<dim>1</dim>
				</port>
			</output>
		</layer>
		<layer id="258" name="399" type="Convert" version="opset1">
			<data destination_type="f32"/>
			<rt_info>
				<attribute name="decompression" version="0"/>
				<attribute name="fused_names" version="0" value="399"/>
			</rt_info>
			<input>
				<port id="0" precision="FP16">
					<dim>512</dim>
					<dim>128</dim>
					<dim>1</dim>
					<dim>1</dim>
				</port>
			</input>
			<output>
				<port id="1" precision="FP32">
					<dim>512</dim>
					<dim>128</dim>
					<dim>1</dim>
					<dim>1</dim>
				</port>
			</output>
		</layer>
		<layer id="259" name="conv5_4_CPM_L2/WithoutBiases" type="Convolution" version="opset1">
			<data strides="1, 1" dilations="1, 1" pads_begin="0, 0" pads_end="0, 0" auto_pad="explicit"/>
			<rt_info>
				<attribute name="fused_names" version="0" value="conv5_4_CPM_L2/WithoutBiases"/>
			</rt_info>
			<input>
				<port id="0" precision="FP32">
					<dim>1</dim>
					<dim>128</dim>
					<dim>32</dim>
					<dim>57</dim>
				</port>
				<port id="1" precision="FP32">
					<dim>512</dim>
					<dim>128</dim>
					<dim>1</dim>
					<dim>1</dim>
				</port>
			</input>
			<output>
				<port id="2" precision="FP32">
					<dim>1</dim>
					<dim>512</dim>
					<dim>32</dim>
					<dim>57</dim>
				</port>
			</output>
		</layer>
		<layer id="260" name="conv5_4_CPM_L2/Dims5162_compressed" type="Const" version="opset1">
			<data element_type="f16" shape="1, 512, 1, 1" offset="4964692" size="1024"/>
			<output>
				<port id="0" precision="FP16">
					<dim>1</dim>
					<dim>512</dim>
					<dim>1</dim>
					<dim>1</dim>
				</port>
			</output>
		</layer>
		<layer id="261" name="conv5_4_CPM_L2/Dims5162" type="Convert" version="opset1">
			<data destination_type="f32"/>
			<rt_info>
				<attribute name="decompression" version="0"/>
				<attribute name="fused_names" version="0" value="conv5_4_CPM_L2/Dims5162"/>
			</rt_info>
			<input>
				<port id="0" precision="FP16">
					<dim>1</dim>
					<dim>512</dim>
					<dim>1</dim>
					<dim>1</dim>
				</port>
			</input>
			<output>
				<port id="1" precision="FP32">
					<dim>1</dim>
					<dim>512</dim>
					<dim>1</dim>
					<dim>1</dim>
				</port>
			</output>
		</layer>
		<layer id="262" name="conv5_4_CPM_L2" type="Add" version="opset1">
			<data auto_broadcast="numpy"/>
			<rt_info>
				<attribute name="fused_names" version="0" value="conv5_4_CPM_L2"/>
			</rt_info>
			<input>
				<port id="0" precision="FP32">
					<dim>1</dim>
					<dim>512</dim>
					<dim>32</dim>
					<dim>57</dim>
				</port>
				<port id="1" precision="FP32">
					<dim>1</dim>
					<dim>512</dim>
					<dim>1</dim>
					<dim>1</dim>
				</port>
			</input>
			<output>
				<port id="2" precision="FP32" names="conv5_4_CPM_L2">
					<dim>1</dim>
					<dim>512</dim>
					<dim>32</dim>
					<dim>57</dim>
				</port>
			</output>
		</layer>
		<layer id="263" name="relu5_4_CPM_L2" type="ReLU" version="opset1">
			<rt_info>
				<attribute name="fused_names" version="0" value="relu5_4_CPM_L2"/>
			</rt_info>
			<input>
				<port id="0" precision="FP32">
					<dim>1</dim>
					<dim>512</dim>
					<dim>32</dim>
					<dim>57</dim>
				</port>
			</input>
			<output>
				<port id="1" precision="FP32" names="conv5_4_CPM_L2">
					<dim>1</dim>
					<dim>512</dim>
					<dim>32</dim>
					<dim>57</dim>
				</port>
			</output>
		</layer>
		<layer id="264" name="263_compressed" type="Const" version="opset1">
			<data element_type="f16" shape="19, 512, 1, 1" offset="4965716" size="19456"/>
			<output>
				<port id="0" precision="FP16">
					<dim>19</dim>
					<dim>512</dim>
					<dim>1</dim>
					<dim>1</dim>
				</port>
			</output>
		</layer>
		<layer id="265" name="263" type="Convert" version="opset1">
			<data destination_type="f32"/>
			<rt_info>
				<attribute name="decompression" version="0"/>
				<attribute name="fused_names" version="0" value="263"/>
			</rt_info>
			<input>
				<port id="0" precision="FP16">
					<dim>19</dim>
					<dim>512</dim>
					<dim>1</dim>
					<dim>1</dim>
				</port>
			</input>
			<output>
				<port id="1" precision="FP32">
					<dim>19</dim>
					<dim>512</dim>
					<dim>1</dim>
					<dim>1</dim>
				</port>
			</output>
		</layer>
		<layer id="266" name="conv5_5_CPM_L2/WithoutBiases" type="Convolution" version="opset1">
			<data strides="1, 1" dilations="1, 1" pads_begin="0, 0" pads_end="0, 0" auto_pad="explicit"/>
			<rt_info>
				<attribute name="fused_names" version="0" value="conv5_5_CPM_L2/WithoutBiases"/>
			</rt_info>
			<input>
				<port id="0" precision="FP32">
					<dim>1</dim>
					<dim>512</dim>
					<dim>32</dim>
					<dim>57</dim>
				</port>
				<port id="1" precision="FP32">
					<dim>19</dim>
					<dim>512</dim>
					<dim>1</dim>
					<dim>1</dim>
				</port>
			</input>
			<output>
				<port id="2" precision="FP32">
					<dim>1</dim>
					<dim>19</dim>
					<dim>32</dim>
					<dim>57</dim>
				</port>
			</output>
		</layer>
		<layer id="267" name="conv5_5_CPM_L2/Dims5108_compressed" type="Const" version="opset1">
			<data element_type="f16" shape="1, 19, 1, 1" offset="4985172" size="38"/>
			<output>
				<port id="0" precision="FP16">
					<dim>1</dim>
					<dim>19</dim>
					<dim>1</dim>
					<dim>1</dim>
				</port>
			</output>
		</layer>
		<layer id="268" name="conv5_5_CPM_L2/Dims5108" type="Convert" version="opset1">
			<data destination_type="f32"/>
			<rt_info>
				<attribute name="decompression" version="0"/>
				<attribute name="fused_names" version="0" value="conv5_5_CPM_L2/Dims5108"/>
			</rt_info>
			<input>
				<port id="0" precision="FP16">
					<dim>1</dim>
					<dim>19</dim>
					<dim>1</dim>
					<dim>1</dim>
				</port>
			</input>
			<output>
				<port id="1" precision="FP32">
					<dim>1</dim>
					<dim>19</dim>
					<dim>1</dim>
					<dim>1</dim>
				</port>
			</output>
		</layer>
		<layer id="269" name="conv5_5_CPM_L2" type="Add" version="opset1">
			<data auto_broadcast="numpy"/>
			<rt_info>
				<attribute name="fused_names" version="0" value="conv5_5_CPM_L2"/>
			</rt_info>
			<input>
				<port id="0" precision="FP32">
					<dim>1</dim>
					<dim>19</dim>
					<dim>32</dim>
					<dim>57</dim>
				</port>
				<port id="1" precision="FP32">
					<dim>1</dim>
					<dim>19</dim>
					<dim>1</dim>
					<dim>1</dim>
				</port>
			</input>
			<output>
				<port id="2" precision="FP32" names="conv5_5_CPM_L2">
					<dim>1</dim>
					<dim>19</dim>
					<dim>32</dim>
					<dim>57</dim>
				</port>
			</output>
		</layer>
		<layer id="270" name="concat_stage2" type="Concat" version="opset1">
			<data axis="1"/>
			<rt_info>
				<attribute name="fused_names" version="0" value="concat_stage2"/>
			</rt_info>
			<input>
				<port id="0" precision="FP32">
					<dim>1</dim>
					<dim>38</dim>
					<dim>32</dim>
					<dim>57</dim>
				</port>
				<port id="1" precision="FP32">
					<dim>1</dim>
					<dim>19</dim>
					<dim>32</dim>
					<dim>57</dim>
				</port>
				<port id="2" precision="FP32">
					<dim>1</dim>
					<dim>128</dim>
					<dim>32</dim>
					<dim>57</dim>
				</port>
			</input>
			<output>
				<port id="3" precision="FP32" names="concat_stage2">
					<dim>1</dim>
					<dim>185</dim>
					<dim>32</dim>
					<dim>57</dim>
				</port>
			</output>
		</layer>
		<layer id="271" name="327_compressed" type="Const" version="opset1">
			<data element_type="f16" shape="128, 185, 1, 1" offset="4985210" size="47360"/>
			<output>
				<port id="0" precision="FP16">
					<dim>128</dim>
					<dim>185</dim>
					<dim>1</dim>
					<dim>1</dim>
				</port>
			</output>
		</layer>
		<layer id="272" name="327" type="Convert" version="opset1">
			<data destination_type="f32"/>
			<rt_info>
				<attribute name="decompression" version="0"/>
				<attribute name="fused_names" version="0" value="327"/>
			</rt_info>
			<input>
				<port id="0" precision="FP16">
					<dim>128</dim>
					<dim>185</dim>
					<dim>1</dim>
					<dim>1</dim>
				</port>
			</input>
			<output>
				<port id="1" precision="FP32">
					<dim>128</dim>
					<dim>185</dim>
					<dim>1</dim>
					<dim>1</dim>
				</port>
			</output>
		</layer>
		<layer id="273" name="Mconv1_stage2_L1/sq/WithoutBiases" type="Convolution" version="opset1">
			<data strides="1, 1" dilations="1, 1" pads_begin="0, 0" pads_end="0, 0" auto_pad="explicit"/>
			<rt_info>
				<attribute name="fused_names" version="0" value="Mconv1_stage2_L1/sq/WithoutBiases"/>
			</rt_info>
			<input>
				<port id="0" precision="FP32">
					<dim>1</dim>
					<dim>185</dim>
					<dim>32</dim>
					<dim>57</dim>
				</port>
				<port id="1" precision="FP32">
					<dim>128</dim>
					<dim>185</dim>
					<dim>1</dim>
					<dim>1</dim>
				</port>
			</input>
			<output>
				<port id="2" precision="FP32">
					<dim>1</dim>
					<dim>128</dim>
					<dim>32</dim>
					<dim>57</dim>
				</port>
			</output>
		</layer>
		<layer id="274" name="Mconv1_stage2_L1/sq/Dims5144_compressed" type="Const" version="opset1">
			<data element_type="f16" shape="1, 128, 1, 1" offset="5032570" size="256"/>
			<output>
				<port id="0" precision="FP16">
					<dim>1</dim>
					<dim>128</dim>
					<dim>1</dim>
					<dim>1</dim>
				</port>
			</output>
		</layer>
		<layer id="275" name="Mconv1_stage2_L1/sq/Dims5144" type="Convert" version="opset1">
			<data destination_type="f32"/>
			<rt_info>
				<attribute name="decompression" version="0"/>
				<attribute name="fused_names" version="0" value="Mconv1_stage2_L1/sq/Dims5144"/>
			</rt_info>
			<input>
				<port id="0" precision="FP16">
					<dim>1</dim>
					<dim>128</dim>
					<dim>1</dim>
					<dim>1</dim>
				</port>
			</input>
			<output>
				<port id="1" precision="FP32">
					<dim>1</dim>
					<dim>128</dim>
					<dim>1</dim>
					<dim>1</dim>
				</port>
			</output>
		</layer>
		<layer id="276" name="Mconv1_stage2_L1/sq" type="Add" version="opset1">
			<data auto_broadcast="numpy"/>
			<rt_info>
				<attribute name="fused_names" version="0" value="Mconv1_stage2_L1/sq"/>
			</rt_info>
			<input>
				<port id="0" precision="FP32">
					<dim>1</dim>
					<dim>128</dim>
					<dim>32</dim>
					<dim>57</dim>
				</port>
				<port id="1" precision="FP32">
					<dim>1</dim>
					<dim>128</dim>
					<dim>1</dim>
					<dim>1</dim>
				</port>
			</input>
			<output>
				<port id="2" precision="FP32" names="Mconv1_stage2_L1/sq">
					<dim>1</dim>
					<dim>128</dim>
					<dim>32</dim>
					<dim>57</dim>
				</port>
			</output>
		</layer>
		<layer id="277" name="relu/Mconv1_stage2_L1/sq" type="ReLU" version="opset1">
			<rt_info>
				<attribute name="fused_names" version="0" value="relu/Mconv1_stage2_L1/sq"/>
			</rt_info>
			<input>
				<port id="0" precision="FP32">
					<dim>1</dim>
					<dim>128</dim>
					<dim>32</dim>
					<dim>57</dim>
				</port>
			</input>
			<output>
				<port id="1" precision="FP32" names="Mconv1_stage2_L1/sq">
					<dim>1</dim>
					<dim>128</dim>
					<dim>32</dim>
					<dim>57</dim>
				</port>
			</output>
		</layer>
		<layer id="278" name="conv1/stage2/3x3/bn/mean/Fused_Mul__copy_compressed" type="Const" version="opset1">
			<data element_type="f16" shape="128, 128, 3, 3" offset="5032826" size="294912"/>
			<output>
				<port id="0" precision="FP16">
					<dim>128</dim>
					<dim>128</dim>
					<dim>3</dim>
					<dim>3</dim>
				</port>
			</output>
		</layer>
		<layer id="279" name="conv1/stage2/3x3/bn/mean/Fused_Mul__copy" type="Convert" version="opset1">
			<data destination_type="f32"/>
			<rt_info>
				<attribute name="decompression" version="0"/>
				<attribute name="fused_names" version="0" value="conv1/stage2/3x3/bn/mean/Fused_Mul__copy"/>
			</rt_info>
			<input>
				<port id="0" precision="FP16">
					<dim>128</dim>
					<dim>128</dim>
					<dim>3</dim>
					<dim>3</dim>
				</port>
			</input>
			<output>
				<port id="1" precision="FP32">
					<dim>128</dim>
					<dim>128</dim>
					<dim>3</dim>
					<dim>3</dim>
				</port>
			</output>
		</layer>
		<layer id="280" name="Mconv1_stage2_L1/3x3/WithoutBiases" type="Convolution" version="opset1">
			<data strides="1, 1" dilations="1, 1" pads_begin="1, 1" pads_end="1, 1" auto_pad="explicit"/>
			<rt_info>
				<attribute name="fused_names" version="0" value="Mconv1_stage2_L1/3x3/WithoutBiases"/>
			</rt_info>
			<input>
				<port id="0" precision="FP32">
					<dim>1</dim>
					<dim>128</dim>
					<dim>32</dim>
					<dim>57</dim>
				</port>
				<port id="1" precision="FP32">
					<dim>128</dim>
					<dim>128</dim>
					<dim>3</dim>
					<dim>3</dim>
				</port>
			</input>
			<output>
				<port id="2" precision="FP32">
					<dim>1</dim>
					<dim>128</dim>
					<dim>32</dim>
					<dim>57</dim>
				</port>
			</output>
		</layer>
		<layer id="281" name="data_add_91169121_compressed" type="Const" version="opset1">
			<data element_type="f16" shape="1, 128, 1, 1" offset="5327738" size="256"/>
			<output>
				<port id="0" precision="FP16">
					<dim>1</dim>
					<dim>128</dim>
					<dim>1</dim>
					<dim>1</dim>
				</port>
			</output>
		</layer>
		<layer id="282" name="data_add_91169121" type="Convert" version="opset1">
			<data destination_type="f32"/>
			<rt_info>
				<attribute name="decompression" version="0"/>
				<attribute name="fused_names" version="0" value="data_add_91169121"/>
			</rt_info>
			<input>
				<port id="0" precision="FP16">
					<dim>1</dim>
					<dim>128</dim>
					<dim>1</dim>
					<dim>1</dim>
				</port>
			</input>
			<output>
				<port id="1" precision="FP32">
					<dim>1</dim>
					<dim>128</dim>
					<dim>1</dim>
					<dim>1</dim>
				</port>
			</output>
		</layer>
		<layer id="283" name="Mconv1_stage2_L1/3x3/Fused_Add_" type="Add" version="opset1">
			<data auto_broadcast="numpy"/>
			<rt_info>
				<attribute name="fused_names" version="0" value="Mconv1_stage2_L1/3x3/Fused_Add_"/>
			</rt_info>
			<input>
				<port id="0" precision="FP32">
					<dim>1</dim>
					<dim>128</dim>
					<dim>32</dim>
					<dim>57</dim>
				</port>
…
				<port id="0" precision="FP32">
					<dim>1</dim>
					<dim>128</dim>
					<dim>32</dim>
					<dim>57</dim>
				</port>
			</input>
			<output>
				<port id="1" precision="FP32" names="Mconv5_stage2_L1/3x3">
					<dim>1</dim>
					<dim>128</dim>
					<dim>32</dim>
					<dim>57</dim>
				</port>
			</output>
		</layer>
		<layer id="373" name="conv5/stage2/3x3/2/bn/mean/Fused_Mul__copy_compressed" type="Const" version="opset1">
			<data element_type="f16" shape="128, 128, 3, 3" offset="7821434" size="294912"/>
			<output>
				<port id="0" precision="FP16">
					<dim>128</dim>
					<dim>128</dim>
					<dim>3</dim>
					<dim>3</dim>
				</port>
			</output>
		</layer>
		<layer id="374" name="conv5/stage2/3x3/2/bn/mean/Fused_Mul__copy" type="Convert" version="opset1">
			<data destination_type="f32"/>
			<rt_info>
				<attribute name="decompression" version="0"/>
				<attribute name="fused_names" version="0" value="conv5/stage2/3x3/2/bn/mean/Fused_Mul__copy"/>
			</rt_info>
			<input>
				<port id="0" precision="FP16">
					<dim>128</dim>
					<dim>128</dim>
					<dim>3</dim>
					<dim>3</dim>
				</port>
			</input>
			<output>
				<port id="1" precision="FP32">
					<dim>128</dim>
					<dim>128</dim>
					<dim>3</dim>
					<dim>3</dim>
				</port>
			</output>
		</layer>
		<layer id="375" name="Mconv5_stage2_L1/3x3/2/WithoutBiases" type="Convolution" version="opset1">
			<data strides="1, 1" dilations="2, 2" pads_begin="2, 2" pads_end="2, 2" auto_pad="explicit"/>
			<rt_info>
				<attribute name="fused_names" version="0" value="Mconv5_stage2_L1/3x3/2/WithoutBiases"/>
			</rt_info>
			<input>
				<port id="0" precision="FP32">
					<dim>1</dim>
					<dim>128</dim>
					<dim>32</dim>
					<dim>57</dim>
				</port>
				<port id="1" precision="FP32">
					<dim>128</dim>
					<dim>128</dim>
					<dim>3</dim>
					<dim>3</dim>
				</port>
			</input>
			<output>
				<port id="2" precision="FP32">
					<dim>1</dim>
					<dim>128</dim>
					<dim>32</dim>
					<dim>57</dim>
				</port>
			</output>
		</layer>
		<layer id="376" name="data_add_91889193_compressed" type="Const" version="opset1">
			<data element_type="f16" shape="1, 128, 1, 1" offset="8116346" size="256"/>
			<output>
				<port id="0" precision="FP16">
					<dim>1</dim>
					<dim>128</dim>
					<dim>1</dim>
					<dim>1</dim>
				</port>
			</output>
		</layer>
		<layer id="377" name="data_add_91889193" type="Convert" version="opset1">
			<data destination_type="f32"/>
			<rt_info>
				<attribute name="decompression" version="0"/>
				<attribute name="fused_names" version="0" value="data_add_91889193"/>
			</rt_info>
			<input>
				<port id="0" precision="FP16">
					<dim>1</dim>
					<dim>128</dim>
					<dim>1</dim>
					<dim>1</dim>
				</port>
			</input>
			<output>
				<port id="1" precision="FP32">
					<dim>1</dim>
					<dim>128</dim>
					<dim>1</dim>
					<dim>1</dim>
				</port>
			</output>
		</layer>
		<layer id="378" name="Mconv5_stage2_L1/3x3/2/Fused_Add_" type="Add" version="opset1">
			<data auto_broadcast="numpy"/>
			<rt_info>
				<attribute name="fused_names" version="0" value="Mconv5_stage2_L1/3x3/2/Fused_Add_"/>
			</rt_info>
			<input>
				<port id="0" precision="FP32">
					<dim>1</dim>
					<dim>128</dim>
					<dim>32</dim>
					<dim>57</dim>
				</port>
				<port id="1" precision="FP32">
					<dim>1</dim>
					<dim>128</dim>
					<dim>1</dim>
					<dim>1</dim>
				</port>
			</input>
			<output>
				<port id="2" precision="FP32" names="Mconv5_stage2_L1/3x3/2">
					<dim>1</dim>
					<dim>128</dim>
					<dim>32</dim>
					<dim>57</dim>
				</port>
			</output>
		</layer>
		<layer id="379" name="relu/Mconv5_stage2_L1/3x3/2" type="ReLU" version="opset1">
			<rt_info>
				<attribute name="fused_names" version="0" value="relu/Mconv5_stage2_L1/3x3/2"/>
			</rt_info>
			<input>
				<port id="0" precision="FP32">
					<dim>1</dim>
					<dim>128</dim>
					<dim>32</dim>
					<dim>57</dim>
				</port>
			</input>
			<output>
				<port id="1" precision="FP32" names="Mconv5_stage2_L1/3x3/2">
					<dim>1</dim>
					<dim>128</dim>
					<dim>32</dim>
					<dim>57</dim>
				</port>
			</output>
		</layer>
		<layer id="380" name="Mconv5_stage2_L1/5x5/res" type="Add" version="opset1">
			<data auto_broadcast="numpy"/>
			<rt_info>
				<attribute name="fused_names" version="0" value="Mconv5_stage2_L1/5x5/res"/>
			</rt_info>
			<input>
				<port id="0" precision="FP32">
					<dim>1</dim>
					<dim>128</dim>
					<dim>32</dim>
					<dim>57</dim>
				</port>
				<port id="1" precision="FP32">
					<dim>1</dim>
					<dim>128</dim>
					<dim>32</dim>
					<dim>57</dim>
				</port>
			</input>
			<output>
				<port id="2" precision="FP32" names="Mconv5_stage2_L1/5x5/res">
					<dim>1</dim>
					<dim>128</dim>
					<dim>32</dim>
					<dim>57</dim>
				</port>
			</output>
		</layer>
		<layer id="381" name="343_compressed" type="Const" version="opset1">
			<data element_type="f16" shape="128, 128, 1, 1" offset="8116602" size="32768"/>
			<output>
				<port id="0" precision="FP16">
					<dim>128</dim>
					<dim>128</dim>
					<dim>1</dim>
					<dim>1</dim>
				</port>
			</output>
		</layer>
		<layer id="382" name="343" type="Convert" version="opset1">
			<data destination_type="f32"/>
			<rt_info>
				<attribute name="decompression" version="0"/>
				<attribute name="fused_names" version="0" value="343"/>
			</rt_info>
			<input>
				<port id="0" precision="FP16">
					<dim>128</dim>
					<dim>128</dim>
					<dim>1</dim>
					<dim>1</dim>
				</port>
			</input>
			<output>
				<port id="1" precision="FP32">
					<dim>128</dim>
					<dim>128</dim>
					<dim>1</dim>
					<dim>1</dim>
				</port>
			</output>
		</layer>
		<layer id="383" name="Mconv6_stage2_L2/WithoutBiases" type="Convolution" version="opset1">
			<data strides="1, 1" dilations="1, 1" pads_begin="0, 0" pads_end="0, 0" auto_pad="explicit"/>
			<rt_info>
				<attribute name="fused_names" version="0" value="Mconv6_stage2_L2/WithoutBiases"/>
			</rt_info>
			<input>
				<port id="0" precision="FP32">
					<dim>1</dim>
					<dim>128</dim>
					<dim>32</dim>
					<dim>57</dim>
				</port>
				<port id="1" precision="FP32">
					<dim>128</dim>
					<dim>128</dim>
					<dim>1</dim>
					<dim>1</dim>
				</port>
			</input>
			<output>
				<port id="2" precision="FP32">
					<dim>1</dim>
					<dim>128</dim>
					<dim>32</dim>
					<dim>57</dim>
				</port>
			</output>
		</layer>
		<layer id="384" name="Mconv6_stage2_L2/Dims5072_compressed" type="Const" version="opset1">
			<data element_type="f16" shape="1, 128, 1, 1" offset="8149370" size="256"/>
			<output>
				<port id="0" precision="FP16">
					<dim>1</dim>
					<dim>128</dim>
					<dim>1</dim>
					<dim>1</dim>
				</port>
			</output>
		</layer>
		<layer id="385" name="Mconv6_stage2_L2/Dims5072" type="Convert" version="opset1">
			<data destination_type="f32"/>
			<rt_info>
				<attribute name="decompression" version="0"/>
				<attribute name="fused_names" version="0" value="Mconv6_stage2_L2/Dims5072"/>
			</rt_info>
			<input>
				<port id="0" precision="FP16">
					<dim>1</dim>
					<dim>128</dim>
					<dim>1</dim>
					<dim>1</dim>
				</port>
			</input>
			<output>
				<port id="1" precision="FP32">
					<dim>1</dim>
					<dim>128</dim>
					<dim>1</dim>
					<dim>1</dim>
				</port>
			</output>
		</layer>
		<layer id="386" name="Mconv6_stage2_L2" type="Add" version="opset1">
			<data auto_broadcast="numpy"/>
			<rt_info>
				<attribute name="fused_names" version="0" value="Mconv6_stage2_L2"/>
			</rt_info>
			<input>
				<port id="0" precision="FP32">
					<dim>1</dim>
					<dim>128</dim>
					<dim>32</dim>
					<dim>57</dim>
				</port>
				<port id="1" precision="FP32">
					<dim>1</dim>
					<dim>128</dim>
					<dim>1</dim>
					<dim>1</dim>
				</port>
			</input>
			<output>
				<port id="2" precision="FP32" names="Mconv6_stage2_L2">
					<dim>1</dim>
					<dim>128</dim>
					<dim>32</dim>
					<dim>57</dim>
				</port>
			</output>
		</layer>
		<layer id="387" name="Mrelu6_stage2_L2" type="ReLU" version="opset1">
			<rt_info>
				<attribute name="fused_names" version="0" value="Mrelu6_stage2_L2"/>
			</rt_info>
			<input>
				<port id="0" precision="FP32">
					<dim>1</dim>
					<dim>128</dim>
					<dim>32</dim>
					<dim>57</dim>
				</port>
			</input>
			<output>
				<port id="1" precision="FP32" names="Mconv6_stage2_L2">
					<dim>1</dim>
					<dim>128</dim>
					<dim>32</dim>
					<dim>57</dim>
				</port>
			</output>
		</layer>
		<layer id="388" name="325_compressed" type="Const" version="opset1">
			<data element_type="f16" shape="19, 128, 1, 1" offset="8149626" size="4864"/>
			<output>
				<port id="0" precision="FP16">
					<dim>19</dim>
					<dim>128</dim>
					<dim>1</dim>
					<dim>1</dim>
				</port>
			</output>
		</layer>
		<layer id="389" name="325" type="Convert" version="opset1">
			<data destination_type="f32"/>
			<rt_info>
				<attribute name="decompression" version="0"/>
				<attribute name="fused_names" version="0" value="325"/>
			</rt_info>
			<input>
				<port id="0" precision="FP16">
					<dim>19</dim>
					<dim>128</dim>
					<dim>1</dim>
					<dim>1</dim>
				</port>
			</input>
			<output>
				<port id="1" precision="FP32">
					<dim>19</dim>
					<dim>128</dim>
					<dim>1</dim>
					<dim>1</dim>
				</port>
			</output>
		</layer>
		<layer id="390" name="Mconv7_stage2_L2/WithoutBiases" type="Convolution" version="opset1">
			<data strides="1, 1" dilations="1, 1" pads_begin="0, 0" pads_end="0, 0" auto_pad="explicit"/>
			<rt_info>
				<attribute name="fused_names" version="0" value="Mconv7_stage2_L2/WithoutBiases"/>
			</rt_info>
			<input>
				<port id="0" precision="FP32">
					<dim>1</dim>
					<dim>128</dim>
					<dim>32</dim>
					<dim>57</dim>
				</port>
				<port id="1" precision="FP32">
					<dim>19</dim>
					<dim>128</dim>
					<dim>1</dim>
					<dim>1</dim>
				</port>
			</input>
			<output>
				<port id="2" precision="FP32">
					<dim>1</dim>
					<dim>19</dim>
					<dim>32</dim>
					<dim>57</dim>
				</port>
			</output>
		</layer>
		<layer id="391" name="Mconv7_stage2_L2/Dims5066_compressed" type="Const" version="opset1">
			<data element_type="f16" shape="1, 19, 1, 1" offset="8154490" size="38"/>
			<output>
				<port id="0" precision="FP16">
					<dim>1</dim>
					<dim>19</dim>
					<dim>1</dim>
					<dim>1</dim>
				</port>
			</output>
		</layer>
		<layer id="392" name="Mconv7_stage2_L2/Dims5066" type="Convert" version="opset1">
			<data destination_type="f32"/>
			<rt_info>
				<attribute name="decompression" version="0"/>
				<attribute name="fused_names" version="0" value="Mconv7_stage2_L2/Dims5066"/>
			</rt_info>
			<input>
				<port id="0" precision="FP16">
					<dim>1</dim>
					<dim>19</dim>
					<dim>1</dim>
					<dim>1</dim>
				</port>
			</input>
			<output>
				<port id="1" precision="FP32">
					<dim>1</dim>
					<dim>19</dim>
					<dim>1</dim>
					<dim>1</dim>
				</port>
			</output>
		</layer>
		<layer id="393" name="Mconv7_stage2_L2" type="Add" version="opset1">
			<data auto_broadcast="numpy"/>
			<rt_info>
				<attribute name="fused_names" version="0" value="Mconv7_stage2_L2"/>
			</rt_info>
			<input>
				<port id="0" precision="FP32">
					<dim>1</dim>
					<dim>19</dim>
					<dim>32</dim>
					<dim>57</dim>
				</port>
				<port id="1" precision="FP32">
					<dim>1</dim>
					<dim>19</dim>
					<dim>1</dim>
					<dim>1</dim>
				</port>
			</input>
			<output>
				<port id="2" precision="FP32" names="Mconv7_stage2_L2">
					<dim>1</dim>
					<dim>19</dim>
					<dim>32</dim>
					<dim>57</dim>
				</port>
			</output>
		</layer>
		<layer id="395" name="315_compressed" type="Const" version="opset1">
			<data element_type="f16" shape="128, 128, 1, 1" offset="8154528" size="32768"/>
			<output>
				<port id="0" precision="FP16">
					<dim>128</dim>
					<dim>128</dim>
					<dim>1</dim>
					<dim>1</dim>
				</port>
			</output>
		</layer>
		<layer id="396" name="315" type="Convert" version="opset1">
			<data destination_type="f32"/>
			<rt_info>
				<attribute name="decompression" version="0"/>
				<attribute name="fused_names" version="0" value="315"/>
			</rt_info>
			<input>
				<port id="0" precision="FP16">
					<dim>128</dim>
					<dim>128</dim>
					<dim>1</dim>
					<dim>1</dim>
				</port>
			</input>
			<output>
				<port id="1" precision="FP32">
					<dim>128</dim>
					<dim>128</dim>
					<dim>1</dim>
					<dim>1</dim>
				</port>
			</output>
		</layer>
		<layer id="397" name="Mconv6_stage2_L1/WithoutBiases" type="Convolution" version="opset1">
			<data strides="1, 1" dilations="1, 1" pads_begin="0, 0" pads_end="0, 0" auto_pad="explicit"/>
			<rt_info>
				<attribute name="fused_names" version="0" value="Mconv6_stage2_L1/WithoutBiases"/>
			</rt_info>
			<input>
				<port id="0" precision="FP32">
					<dim>1</dim>
					<dim>128</dim>
					<dim>32</dim>
					<dim>57</dim>
				</port>
				<port id="1" precision="FP32">
					<dim>128</dim>
					<dim>128</dim>
					<dim>1</dim>
					<dim>1</dim>
				</port>
			</input>
			<output>
				<port id="2" precision="FP32">
					<dim>1</dim>
					<dim>128</dim>
					<dim>32</dim>
					<dim>57</dim>
				</port>
			</output>
		</layer>
		<layer id="398" name="Mconv6_stage2_L1/Dims5060_compressed" type="Const" version="opset1">
			<data element_type="f16" shape="1, 128, 1, 1" offset="8187296" size="256"/>
			<output>
				<port id="0" precision="FP16">
					<dim>1</dim>
					<dim>128</dim>
					<dim>1</dim>
					<dim>1</dim>
				</port>
			</output>
		</layer>
		<layer id="399" name="Mconv6_stage2_L1/Dims5060" type="Convert" version="opset1">
			<data destination_type="f32"/>
			<rt_info>
				<attribute name="decompression" version="0"/>
				<attribute name="fused_names" version="0" value="Mconv6_stage2_L1/Dims5060"/>
			</rt_info>
			<input>
				<port id="0" precision="FP16">
					<dim>1</dim>
					<dim>128</dim>
					<dim>1</dim>
					<dim>1</dim>
				</port>
			</input>
			<output>
				<port id="1" precision="FP32">
					<dim>1</dim>
					<dim>128</dim>
					<dim>1</dim>
					<dim>1</dim>
				</port>
			</output>
		</layer>
		<layer id="400" name="Mconv6_stage2_L1" type="Add" version="opset1">
			<data auto_broadcast="numpy"/>
			<rt_info>
				<attribute name="fused_names" version="0" value="Mconv6_stage2_L1"/>
			</rt_info>
			<input>
				<port id="0" precision="FP32">
					<dim>1</dim>
					<dim>128</dim>
					<dim>32</dim>
					<dim>57</dim>
				</port>
				<port id="1" precision="FP32">
					<dim>1</dim>
					<dim>128</dim>
					<dim>1</dim>
					<dim>1</dim>
				</port>
			</input>
			<output>
				<port id="2" precision="FP32" names="Mconv6_stage2_L1">
					<dim>1</dim>
					<dim>128</dim>
					<dim>32</dim>
					<dim>57</dim>
				</port>
			</output>
		</layer>
		<layer id="401" name="Mrelu6_stage2_L1" type="ReLU" version="opset1">
			<rt_info>
				<attribute name="fused_names" version="0" value="Mrelu6_stage2_L1"/>
			</rt_info>
			<input>
				<port id="0" precision="FP32">
					<dim>1</dim>
					<dim>128</dim>
					<dim>32</dim>
					<dim>57</dim>
				</port>
			</input>
			<output>
				<port id="1" precision="FP32" names="Mconv6_stage2_L1">
					<dim>1</dim>
					<dim>128</dim>
					<dim>32</dim>
					<dim>57</dim>
				</port>
			</output>
		</layer>
		<layer id="402" name="210_compressed" type="Const" version="opset1">
			<data element_type="f16" shape="38, 128, 1, 1" offset="8187552" size="9728"/>
			<output>
				<port id="0" precision="FP16">
					<dim>38</dim>
					<dim>128</dim>
					<dim>1</dim>
					<dim>1</dim>
				</port>
			</output>
		</layer>
		<layer id="403" name="210" type="Convert" version="opset1">
			<data destination_type="f32"/>
			<rt_info>
				<attribute name="decompression" version="0"/>
				<attribute name="fused_names" version="0" value="210"/>
			</rt_info>
			<input>
				<port id="0" precision="FP16">
					<dim>38</dim>
					<dim>128</dim>
					<dim>1</dim>
					<dim>1</dim>
				</port>
			</input>
			<output>
				<port id="1" precision="FP32">
					<dim>38</dim>
					<dim>128</dim>
					<dim>1</dim>
					<dim>1</dim>
				</port>
			</output>
		</layer>
		<layer id="404" name="Mconv7_stage2_L1/WithoutBiases" type="Convolution" version="opset1">
			<data strides="1, 1" dilations="1, 1" pads_begin="0, 0" pads_end="0, 0" auto_pad="explicit"/>
			<rt_info>
				<attribute name="fused_names" version="0" value="Mconv7_stage2_L1/WithoutBiases"/>
			</rt_info>
			<input>
				<port id="0" precision="FP32">
					<dim>1</dim>
					<dim>128</dim>
					<dim>32</dim>
					<dim>57</dim>
				</port>
				<port id="1" precision="FP32">
					<dim>38</dim>
					<dim>128</dim>
					<dim>1</dim>
					<dim>1</dim>
				</port>
			</input>
			<output>
				<port id="2" precision="FP32">
					<dim>1</dim>
					<dim>38</dim>
					<dim>32</dim>
					<dim>57</dim>
				</port>
			</output>
		</layer>
		<layer id="405" name="Mconv7_stage2_L1/Dims5030_compressed" type="Const" version="opset1">
			<data element_type="f16" shape="1, 38, 1, 1" offset="8197280" size="76"/>
			<output>
				<port id="0" precision="FP16">
					<dim>1</dim>
					<dim>38</dim>
					<dim>1</dim>
					<dim>1</dim>
				</port>
			</output>
		</layer>
		<layer id="406" name="Mconv7_stage2_L1/Dims5030" type="Convert" version="opset1">
			<data destination_type="f32"/>
			<rt_info>
				<attribute name="decompression" version="0"/>
				<attribute name="fused_names" version="0" value="Mconv7_stage2_L1/Dims5030"/>
			</rt_info>
			<input>
				<port id="0" precision="FP16">
					<dim>1</dim>
					<dim>38</dim>
					<dim>1</dim>
					<dim>1</dim>
				</port>
			</input>
			<output>
				<port id="1" precision="FP32">
					<dim>1</dim>
					<dim>38</dim>
					<dim>1</dim>
					<dim>1</dim>
				</port>
			</output>
		</layer>
		<layer id="407" name="Mconv7_stage2_L1" type="Add" version="opset1">
			<data auto_broadcast="numpy"/>
			<rt_info>
				<attribute name="fused_names" version="0" value="Mconv7_stage2_L1"/>
			</rt_info>
			<input>
				<port id="0" precision="FP32">
					<dim>1</dim>
					<dim>38</dim>
					<dim>32</dim>
					<dim>57</dim>
				</port>
				<port id="1" precision="FP32">
					<dim>1</dim>
					<dim>38</dim>
					<dim>1</dim>
					<dim>1</dim>
				</port>
			</input>
			<output>
				<port id="2" precision="FP32" names="Mconv7_stage2_L1">
					<dim>1</dim>
					<dim>38</dim>
					<dim>32</dim>
					<dim>57</dim>
				</port>
			</output>
		</layer>
		<layer id="408" name="Mconv7_stage2_L1/sink_port_0" type="Result" version="opset1">
			<rt_info>
				<attribute name="fused_names" version="0" value="Mconv7_stage2_L1/sink_port_0"/>
			</rt_info>
			<input>
				<port id="0" precision="FP32">
					<dim>1</dim>
					<dim>38</dim>
					<dim>32</dim>
					<dim>57</dim>
				</port>
			</input>
		</layer>
		<layer id="394" name="Mconv7_stage2_L2/sink_port_0" type="Result" version="opset1">
			<rt_info>
				<attribute name="fused_names" version="0" value="Mconv7_stage2_L2/sink_port_0"/>
			</rt_info>
			<input>
				<port id="0" precision="FP32">
					<dim>1</dim>
					<dim>19</dim>
					<dim>32</dim>
					<dim>57</dim>
				</port>
			</input>
		</layer>
	</layers>
	<edges>
		<edge from-layer="0" from-port="0" to-layer="3" to-port="0"/>
		<edge from-layer="1" from-port="0" to-layer="2" to-port="0"/>
		<edge from-layer="2" from-port="1" to-layer="3" to-port="1"/>
		<edge from-layer="3" from-port="2" to-layer="6" to-port="0"/>
		<edge from-layer="4" from-port="0" to-layer="5" to-port="0"/>
		<edge from-layer="5" from-port="1" to-layer="6" to-port="1"/>
		<edge from-layer="6" from-port="2" to-layer="9" to-port="0"/>
		<edge from-layer="7" from-port="0" to-layer="8" to-port="0"/>
		<edge from-layer="8" from-port="1" to-layer="9" to-port="1"/>
		<edge from-layer="9" from-port="2" to-layer="12" to-port="0"/>
		<edge from-layer="10" from-port="0" to-layer="11" to-port="0"/>
		<edge from-layer="11" from-port="1" to-layer="12" to-port="1"/>
		<edge from-layer="12" from-port="2" to-layer="13" to-port="0"/>
		<edge from-layer="13" from-port="1" to-layer="16" to-port="0"/>
		<edge from-layer="14" from-port="0" to-layer="15" to-port="0"/>
		<edge from-layer="15" from-port="1" to-layer="16" to-port="1"/>
		<edge from-layer="16" from-port="2" to-layer="19" to-port="0"/>
		<edge from-layer="17" from-port="0" to-layer="18" to-port="0"/>
		<edge from-layer="18" from-port="1" to-layer="19" to-port="1"/>
		<edge from-layer="19" from-port="2" to-layer="20" to-port="0"/>
		<edge from-layer="20" from-port="1" to-layer="23" to-port="0"/>
		<edge from-layer="21" from-port="0" to-layer="22" to-port="0"/>
		<edge from-layer="22" from-port="1" to-layer="23" to-port="1"/>
		<edge from-layer="23" from-port="2" to-layer="26" to-port="0"/>
		<edge from-layer="24" from-port="0" to-layer="25" to-port="0"/>
		<edge from-layer="25" from-port="1" to-layer="26" to-port="1"/>
		<edge from-layer="26" from-port="2" to-layer="27" to-port="0"/>
		<edge from-layer="27" from-port="1" to-layer="30" to-port="0"/>
		<edge from-layer="28" from-port="0" to-layer="29" to-port="0"/>
		<edge from-layer="29" from-port="1" to-layer="30" to-port="1"/>
		<edge from-layer="30" from-port="2" to-layer="33" to-port="0"/>
		<edge from-layer="31" from-port="0" to-layer="32" to-port="0"/>
		<edge from-layer="32" from-port="1" to-layer="33" to-port="1"/>
		<edge from-layer="33" from-port="2" to-layer="34" to-port="0"/>
		<edge from-layer="34" from-port="1" to-layer="37" to-port="0"/>
		<edge from-layer="35" from-port="0" to-layer="36" to-port="0"/>
		<edge from-layer="36" from-port="1" to-layer="37" to-port="1"/>
		<edge from-layer="37" from-port="2" to-layer="40" to-port="0"/>
		<edge from-layer="38" from-port="0" to-layer="39" to-port="0"/>
		<edge from-layer="39" from-port="1" to-layer="40" to-port="1"/>
		<edge from-layer="40" from-port="2" to-layer="41" to-port="0"/>
		<edge from-layer="41" from-port="1" to-layer="44" to-port="0"/>
		<edge from-layer="42" from-port="0" to-layer="43" to-port="0"/>
		<edge from-layer="43" from-port="1" to-layer="44" to-port="1"/>
		<edge from-layer="44" from-port="2" to-layer="47" to-port="0"/>
		<edge from-layer="45" from-port="0" to-layer="46" to-port="0"/>
		<edge from-layer="46" from-port="1" to-layer="47" to-port="1"/>
		<edge from-layer="47" from-port="2" to-layer="48" to-port="0"/>
		<edge from-layer="48" from-port="1" to-layer="51" to-port="0"/>
		<edge from-layer="49" from-port="0" to-layer="50" to-port="0"/>
		<edge from-layer="50" from-port="1" to-layer="51" to-port="1"/>
		<edge from-layer="51" from-port="2" to-layer="54" to-port="0"/>
		<edge from-layer="52" from-port="0" to-layer="53" to-port="0"/>
		<edge from-layer="53" from-port="1" to-layer="54" to-port="1"/>
		<edge from-layer="54" from-port="2" to-layer="55" to-port="0"/>
		<edge from-layer="55" from-port="1" to-layer="58" to-port="0"/>
		<edge from-layer="56" from-port="0" to-layer="57" to-port="0"/>
		<edge from-layer="57" from-port="1" to-layer="58" to-port="1"/>
		<edge from-layer="58" from-port="2" to-layer="61" to-port="0"/>
		<edge from-layer="59" from-port="0" to-layer="60" to-port="0"/>
		<edge from-layer="60" from-port="1" to-layer="61" to-port="1"/>
		<edge from-layer="61" from-port="2" to-layer="62" to-port="0"/>
		<edge from-layer="62" from-port="1" to-layer="65" to-port="0"/>
		<edge from-layer="63" from-port="0" to-layer="64" to-port="0"/>
		<edge from-layer="64" from-port="1" to-layer="65" to-port="1"/>
		<edge from-layer="65" from-port="2" to-layer="68" to-port="0"/>
		<edge from-layer="66" from-port="0" to-layer="67" to-port="0"/>
		<edge from-layer="67" from-port="1" to-layer="68" to-port="1"/>
		<edge from-layer="68" from-port="2" to-layer="69" to-port="0"/>
		<edge from-layer="69" from-port="1" to-layer="72" to-port="0"/>
		<edge from-layer="70" from-port="0" to-layer="71" to-port="0"/>
		<edge from-layer="71" from-port="1" to-layer="72" to-port="1"/>
		<edge from-layer="72" from-port="2" to-layer="75" to-port="0"/>
		<edge from-layer="73" from-port="0" to-layer="74" to-port="0"/>
		<edge from-layer="74" from-port="1" to-layer="75" to-port="1"/>
		<edge from-layer="75" from-port="2" to-layer="76" to-port="0"/>
		<edge from-layer="76" from-port="1" to-layer="79" to-port="0"/>
		<edge from-layer="77" from-port="0" to-layer="78" to-port="0"/>
		<edge from-layer="78" from-port="1" to-layer="79" to-port="1"/>
		<edge from-layer="79" from-port="2" to-layer="82" to-port="0"/>
		<edge from-layer="80" from-port="0" to-layer="81" to-port="0"/>
		<edge from-layer="81" from-port="1" to-layer="82" to-port="1"/>
		<edge from-layer="82" from-port="2" to-layer="83" to-port="0"/>
		<edge from-layer="83" from-port="1" to-layer="86" to-port="0"/>
		<edge from-layer="84" from-port="0" to-layer="85" to-port="0"/>
		<edge from-layer="85" from-port="1" to-layer="86" to-port="1"/>
		<edge from-layer="86" from-port="2" to-layer="89" to-port="0"/>
		<edge from-layer="87" from-port="0" to-layer="88" to-port="0"/>
		<edge from-layer="88" from-port="1" to-layer="89" to-port="1"/>
		<edge from-layer="89" from-port="2" to-layer="90" to-port="0"/>
		<edge from-layer="90" from-port="1" to-layer="93" to-port="0"/>
		<edge from-layer="91" from-port="0" to-layer="92" to-port="0"/>
		<edge from-layer="92" from-port="1" to-layer="93" to-port="1"/>
		<edge from-layer="93" from-port="2" to-layer="96" to-port="0"/>
		<edge from-layer="94" from-port="0" to-layer="95" to-port="0"/>
		<edge from-layer="95" from-port="1" to-layer="96" to-port="1"/>
		<edge from-layer="96" from-port="2" to-layer="97" to-port="0"/>
		<edge from-layer="97" from-port="1" to-layer="100" to-port="0"/>
		<edge from-layer="98" from-port="0" to-layer="99" to-port="0"/>
		<edge from-layer="99" from-port="1" to-layer="100" to-port="1"/>
		<edge from-layer="100" from-port="2" to-layer="103" to-port="0"/>
		<edge from-layer="101" from-port="0" to-layer="102" to-port="0"/>
		<edge from-layer="102" from-port="1" to-layer="103" to-port="1"/>
		<edge from-layer="103" from-port="2" to-layer="104" to-port="0"/>
		<edge from-layer="104" from-port="1" to-layer="107" to-port="0"/>
		<edge from-layer="105" from-port="0" to-layer="106" to-port="0"/>
		<edge from-layer="106" from-port="1" to-layer="107" to-port="1"/>
		<edge from-layer="107" from-port="2" to-layer="110" to-port="0"/>
		<edge from-layer="108" from-port="0" to-layer="109" to-port="0"/>
		<edge from-layer="109" from-port="1" to-layer="110" to-port="1"/>
		<edge from-layer="110" from-port="2" to-layer="111" to-port="0"/>
		<edge from-layer="111" from-port="1" to-layer="114" to-port="0"/>
		<edge from-layer="112" from-port="0" to-layer="113" to-port="0"/>
		<edge from-layer="113" from-port="1" to-layer="114" to-port="1"/>
		<edge from-layer="114" from-port="2" to-layer="117" to-port="0"/>
		<edge from-layer="115" from-port="0" to-layer="116" to-port="0"/>
		<edge from-layer="116" from-port="1" to-layer="117" to-port="1"/>
		<edge from-layer="117" from-port="2" to-layer="118" to-port="0"/>
		<edge from-layer="118" from-port="1" to-layer="121" to-port="0"/>
		<edge from-layer="119" from-port="0" to-layer="120" to-port="0"/>
		<edge from-layer="120" from-port="1" to-layer="121" to-port="1"/>
		<edge from-layer="121" from-port="2" to-layer="124" to-port="0"/>
		<edge from-layer="122" from-port="0" to-layer="123" to-port="0"/>
		<edge from-layer="123" from-port="1" to-layer="124" to-port="1"/>
		<edge from-layer="124" from-port="2" to-layer="125" to-port="0"/>
		<edge from-layer="125" from-port="1" to-layer="128" to-port="0"/>
		<edge from-layer="126" from-port="0" to-layer="127" to-port="0"/>
		<edge from-layer="127" from-port="1" to-layer="128" to-port="1"/>
		<edge from-layer="128" from-port="2" to-layer="131" to-port="0"/>
		<edge from-layer="129" from-port="0" to-layer="130" to-port="0"/>
		<edge from-layer="130" from-port="1" to-layer="131" to-port="1"/>
		<edge from-layer="131" from-port="2" to-layer="132" to-port="0"/>
		<edge from-layer="132" from-port="1" to-layer="135" to-port="0"/>
		<edge from-layer="133" from-port="0" to-layer="134" to-port="0"/>
		<edge from-layer="134" from-port="1" to-layer="135" to-port="1"/>
		<edge from-layer="135" from-port="2" to-layer="138" to-port="0"/>
		<edge from-layer="136" from-port="0" to-layer="137" to-port="0"/>
		<edge from-layer="137" from-port="1" to-layer="138" to-port="1"/>
		<edge from-layer="138" from-port="2" to-layer="139" to-port="0"/>
		<edge from-layer="139" from-port="1" to-layer="142" to-port="0"/>
		<edge from-layer="140" from-port="0" to-layer="141" to-port="0"/>
		<edge from-layer="141" from-port="1" to-layer="142" to-port="1"/>
		<edge from-layer="142" from-port="2" to-layer="145" to-port="0"/>
		<edge from-layer="143" from-port="0" to-layer="144" to-port="0"/>
		<edge from-layer="144" from-port="1" to-layer="145" to-port="1"/>
		<edge from-layer="145" from-port="2" to-layer="146" to-port="0"/>
		<edge from-layer="146" from-port="1" to-layer="149" to-port="0"/>
		<edge from-layer="147" from-port="0" to-layer="148" to-port="0"/>
		<edge from-layer="148" from-port="1" to-layer="149" to-port="1"/>
		<edge from-layer="149" from-port="2" to-layer="152" to-port="0"/>
		<edge from-layer="150" from-port="0" to-layer="151" to-port="0"/>
		<edge from-layer="151" from-port="1" to-layer="152" to-port="1"/>
		<edge from-layer="152" from-port="2" to-layer="153" to-port="0"/>
		<edge from-layer="153" from-port="1" to-layer="156" to-port="0"/>
		<edge from-layer="154" from-port="0" to-layer="155" to-port="0"/>
		<edge from-layer="155" from-port="1" to-layer="156" to-port="1"/>
		<edge from-layer="156" from-port="2" to-layer="159" to-port="0"/>
		<edge from-layer="157" from-port="0" to-layer="158" to-port="0"/>
		<edge from-layer="158" from-port="1" to-layer="159" to-port="1"/>
		<edge from-layer="159" from-port="2" to-layer="160" to-port="0"/>
		<edge from-layer="160" from-port="1" to-layer="163" to-port="0"/>
		<edge from-layer="161" from-port="0" to-layer="162" to-port="0"/>
		<edge from-layer="162" from-port="1" to-layer="163" to-port="1"/>
		<edge from-layer="163" from-port="2" to-layer="166" to-port="0"/>
		<edge from-layer="164" from-port="0" to-layer="165" to-port="0"/>
		<edge from-layer="165" from-port="1" to-layer="166" to-port="1"/>
		<edge from-layer="166" from-port="2" to-layer="167" to-port="0"/>
		<edge from-layer="167" from-port="1" to-layer="170" to-port="0"/>
		<edge from-layer="168" from-port="0" to-layer="169" to-port="0"/>
		<edge from-layer="169" from-port="1" to-layer="170" to-port="1"/>
		<edge from-layer="170" from-port="2" to-layer="173" to-port="0"/>
		<edge from-layer="171" from-port="0" to-layer="172" to-port="0"/>
		<edge from-layer="172" from-port="1" to-layer="173" to-port="1"/>
		<edge from-layer="173" from-port="2" to-layer="174" to-port="0"/>
		<edge from-layer="174" from-port="1" to-layer="177" to-port="0"/>
		<edge from-layer="174" from-port="1" to-layer="215" to-port="0"/>
		<edge from-layer="175" from-port="0" to-layer="176" to-port="0"/>
		<edge from-layer="176" from-port="1" to-layer="177" to-port="1"/>
		<edge from-layer="177" from-port="2" to-layer="180" to-port="0"/>
		<edge from-layer="178" from-port="0" to-layer="179" to-port="0"/>
		<edge from-layer="179" from-port="1" to-layer="180" to-port="1"/>
		<edge from-layer="180" from-port="2" to-layer="181" to-port="0"/>
		<edge from-layer="181" from-port="1" to-layer="184" to-port="0"/>
		<edge from-layer="182" from-port="0" to-layer="183" to-port="0"/>
		<edge from-layer="183" from-port="1" to-layer="184" to-port="1"/>
		<edge from-layer="184" from-port="2" to-layer="185" to-port="0"/>
		<edge from-layer="185" from-port="1" to-layer="188" to-port="0"/>
		<edge from-layer="186" from-port="0" to-layer="187" to-port="0"/>
		<edge from-layer="187" from-port="1" to-layer="188" to-port="1"/>
		<edge from-layer="188" from-port="2" to-layer="191" to-port="0"/>
		<edge from-layer="189" from-port="0" to-layer="190" to-port="0"/>
		<edge from-layer="190" from-port="1" to-layer="191" to-port="1"/>
		<edge from-layer="191" from-port="2" to-layer="192" to-port="0"/>
		<edge from-layer="192" from-port="1" to-layer="195" to-port="0"/>
		<edge from-layer="193" from-port="0" to-layer="194" to-port="0"/>
		<edge from-layer="194" from-port="1" to-layer="195" to-port="1"/>
		<edge from-layer="195" from-port="2" to-layer="196" to-port="0"/>
		<edge from-layer="196" from-port="1" to-layer="199" to-port="0"/>
		<edge from-layer="197" from-port="0" to-layer="198" to-port="0"/>
		<edge from-layer="198" from-port="1" to-layer="199" to-port="1"/>
		<edge from-layer="199" from-port="2" to-layer="202" to-port="0"/>
		<edge from-layer="200" from-port="0" to-layer="201" to-port="0"/>
		<edge from-layer="201" from-port="1" to-layer="202" to-port="1"/>
		<edge from-layer="202" from-port="2" to-layer="203" to-port="0"/>
		<edge from-layer="203" from-port="1" to-layer="206" to-port="0"/>
		<edge from-layer="204" from-port="0" to-layer="205" to-port="0"/>
		<edge from-layer="205" from-port="1" to-layer="206" to-port="1"/>
		<edge from-layer="206" from-port="2" to-layer="207" to-port="0"/>
		<edge from-layer="207" from-port="1" to-layer="210" to-port="0"/>
		<edge from-layer="208" from-port="0" to-layer="209" to-port="0"/>
		<edge from-layer="209" from-port="1" to-layer="210" to-port="1"/>
		<edge from-layer="210" from-port="2" to-layer="213" to-port="0"/>
		<edge from-layer="211" from-port="0" to-layer="212" to-port="0"/>
		<edge from-layer="212" from-port="1" to-layer="213" to-port="1"/>
		<edge from-layer="213" from-port="2" to-layer="214" to-port="0"/>
		<edge from-layer="214" from-port="1" to-layer="215" to-port="1"/>
		<edge from-layer="215" from-port="2" to-layer="218" to-port="0"/>
		<edge from-layer="216" from-port="0" to-layer="217" to-port="0"/>
		<edge from-layer="217" from-port="1" to-layer="218" to-port="1"/>
		<edge from-layer="218" from-port="2" to-layer="221" to-port="0"/>
		<edge from-layer="219" from-port="0" to-layer="220" to-port="0"/>
		<edge from-layer="220" from-port="1" to-layer="221" to-port="1"/>
		<edge from-layer="221" from-port="2" to-layer="222" to-port="0"/>
		<edge from-layer="222" from-port="1" to-layer="225" to-port="0"/>
		<edge from-layer="222" from-port="1" to-layer="270" to-port="2"/>
		<edge from-layer="223" from-port="0" to-layer="224" to-port="0"/>
		<edge from-layer="224" from-port="1" to-layer="225" to-port="1"/>
		<edge from-layer="225" from-port="2" to-layer="228" to-port="0"/>
		<edge from-layer="226" from-port="0" to-layer="227" to-port="0"/>
		<edge from-layer="227" from-port="1" to-layer="228" to-port="1"/>
		<edge from-layer="228" from-port="2" to-layer="229" to-port="0"/>
		<edge from-layer="229" from-port="1" to-layer="232" to-port="0"/>
		<edge from-layer="230" from-port="0" to-layer="231" to-port="0"/>
		<edge from-layer="231" from-port="1" to-layer="232" to-port="1"/>
		<edge from-layer="232" from-port="2" to-layer="235" to-port="0"/>
		<edge from-layer="233" from-port="0" to-layer="234" to-port="0"/>
		<edge from-layer="234" from-port="1" to-layer="235" to-port="1"/>
		<edge from-layer="235" from-port="2" to-layer="236" to-port="0"/>
		<edge from-layer="236" from-port="1" to-layer="239" to-port="0"/>
		<edge from-layer="237" from-port="0" to-layer="238" to-port="0"/>
		<edge from-layer="238" from-port="1" to-layer="239" to-port="1"/>
		<edge from-layer="239" from-port="2" to-layer="242" to-port="0"/>
		<edge from-layer="240" from-port="0" to-layer="241" to-port="0"/>
		<edge from-layer="241" from-port="1" to-layer="242" to-port="1"/>
		<edge from-layer="242" from-port="2" to-layer="243" to-port="0"/>
		<edge from-layer="243" from-port="1" to-layer="246" to-port="0"/>
		<edge from-layer="243" from-port="1" to-layer="259" to-port="0"/>
		<edge from-layer="244" from-port="0" to-layer="245" to-port="0"/>
		<edge from-layer="245" from-port="1" to-layer="246" to-port="1"/>
		<edge from-layer="246" from-port="2" to-layer="249" to-port="0"/>
		<edge from-layer="247" from-port="0" to-layer="248" to-port="0"/>
		<edge from-layer="248" from-port="1" to-layer="249" to-port="1"/>
		<edge from-layer="249" from-port="2" to-layer="250" to-port="0"/>
		<edge from-layer="250" from-port="1" to-layer="253" to-port="0"/>
		<edge from-layer="251" from-port="0" to-layer="252" to-port="0"/>
		<edge from-layer="252" from-port="1" to-layer="253" to-port="1"/>
		<edge from-layer="253" from-port="2" to-layer="256" to-port="0"/>
		<edge from-layer="254" from-port="0" to-layer="255" to-port="0"/>
		<edge from-layer="255" from-port="1" to-layer="256" to-port="1"/>
		<edge from-layer="256" from-port="2" to-layer="270" to-port="0"/>
		<edge from-layer="257" from-port="0" to-layer="258" to-port="0"/>
		<edge from-layer="258" from-port="1" to-layer="259" to-port="1"/>
		<edge from-layer="259" from-port="2" to-layer="262" to-port="0"/>
		<edge from-layer="260" from-port="0" to-layer="261" to-port="0"/>
		<edge from-layer="261" from-port="1" to-layer="262" to-port="1"/>
		<edge from-layer="262" from-port="2" to-layer="263" to-port="0"/>
		<edge from-layer="263" from-port="1" to-layer="266" to-port="0"/>
		<edge from-layer="264" from-port="0" to-layer="265" to-port="0"/>
		<edge from-layer="265" from-port="1" to-layer="266" to-port="1"/>
		<edge from-layer="266" from-port="2" to-layer="269" to-port="0"/>
		<edge from-layer="267" from-port="0" to-layer="268" to-port="0"/>
		<edge from-layer="268" from-port="1" to-layer="269" to-port="1"/>
		<edge from-layer="269" from-port="2" to-layer="270" to-port="1"/>
		<edge from-layer="270" from-port="3" to-layer="273" to-port="0"/>
		<edge from-layer="271" from-port="0" to-layer="272" to-port="0"/>
		<edge from-layer="272" from-port="1" to-layer="273" to-port="1"/>
		<edge from-layer="273" from-port="2" to-layer="276" to-port="0"/>
		<edge from-layer="274" from-port="0" to-layer="275" to-port="0"/>
		<edge from-layer="275" from-port="1" to-layer="276" to-port="1"/>
		<edge from-layer="276" from-port="2" to-layer="277" to-port="0"/>
		<edge from-layer="277" from-port="1" to-layer="280" to-port="0"/>
		<edge from-layer="277" from-port="1" to-layer="292" to-port="0"/>
		<edge from-layer="278" from-port="0" to-layer="279" to-port="0"/>
		<edge from-layer="279" from-port="1" to-layer="280" to-port="1"/>
		<edge from-layer="280" from-port="2" to-layer="283" to-port="0"/>
		<edge from-layer="281" from-port="0" to-layer="282" to-port="0"/>
		<edge from-layer="282" from-port="1" to-layer="283" to-port="1"/>
		<edge from-layer="283" from-port="2" to-layer="284" to-port="0"/>
		<edge from-layer="284" from-port="1" to-layer="287" to-port="0"/>
		<edge from-layer="285" from-port="0" to-layer="286" to-port="0"/>
		<edge from-layer="286" from-port="1" to-layer="287" to-port="1"/>
		<edge from-layer="287" from-port="2" to-layer="290" to-port="0"/>
		<edge from-layer="288" from-port="0" to-layer="289" to-port="0"/>
		<edge from-layer="289" from-port="1" to-layer="290" to-port="1"/>
		<edge from-layer="290" from-port="2" to-layer="291" to-port="0"/>
		<edge from-layer="291" from-port="1" to-layer="292" to-port="1"/>
		<edge from-layer="292" from-port="2" to-layer="295" to-port="0"/>
		<edge from-layer="293" from-port="0" to-layer="294" to-port="0"/>
		<edge from-layer="294" from-port="1" to-layer="295" to-port="1"/>
		<edge from-layer="295" from-port="2" to-layer="298" to-port="0"/>
		<edge from-layer="296" from-port="0" to-layer="297" to-port="0"/>
		<edge from-layer="297" from-port="1" to-layer="298" to-port="1"/>
		<edge from-layer="298" from-port="2" to-layer="299" to-port="0"/>
		<edge from-layer="299" from-port="1" to-layer="302" to-port="0"/>
		<edge from-layer="299" from-port="1" to-layer="314" to-port="0"/>
		<edge from-layer="300" from-port="0" to-layer="301" to-port="0"/>
		<edge from-layer="301" from-port="1" to-layer="302" to-port="1"/>
		<edge from-layer="302" from-port="2" to-layer="305" to-port="0"/>
		<edge from-layer="303" from-port="0" to-layer="304" to-port="0"/>
		<edge from-layer="304" from-port="1" to-layer="305" to-port="1"/>
		<edge from-layer="305" from-port="2" to-layer="306" to-port="0"/>
		<edge from-layer="306" from-port="1" to-layer="309" to-port="0"/>
		<edge from-layer="307" from-port="0" to-layer="308" to-port="0"/>
		<edge from-layer="308" from-port="1" to-layer="309" to-port="1"/>
		<edge from-layer="309" from-port="2" to-layer="312" to-port="0"/>
		<edge from-layer="310" from-port="0" to-layer="311" to-port="0"/>
		<edge from-layer="311" from-port="1" to-layer="312" to-port="1"/>
		<edge from-layer="312" from-port="2" to-layer="313" to-port="0"/>
		<edge from-layer="313" from-port="1" to-layer="314" to-port="1"/>
		<edge from-layer="314" from-port="2" to-layer="317" to-port="0"/>
		<edge from-layer="315" from-port="0" to-layer="316" to-port="0"/>
		<edge from-layer="316" from-port="1" to-layer="317" to-port="1"/>
		<edge from-layer="317" from-port="2" to-layer="320" to-port="0"/>
		<edge from-layer="318" from-port="0" to-layer="319" to-port="0"/>
		<edge from-layer="319" from-port="1" to-layer="320" to-port="1"/>
		<edge from-layer="320" from-port="2" to-layer="321" to-port="0"/>
		<edge from-layer="321" from-port="1" to-layer="336" to-port="0"/>
		<edge from-layer="321" from-port="1" to-layer="324" to-port="0"/>
		<edge from-layer="322" from-port="0" to-layer="323" to-port="0"/>
		<edge from-layer="323" from-port="1" to-layer="324" to-port="1"/>
		<edge from-layer="324" from-port="2" to-layer="327" to-port="0"/>
		<edge from-layer="325" from-port="0" to-layer="326" to-port="0"/>
		<edge from-layer="326" from-port="1" to-layer="327" to-port="1"/>
		<edge from-layer="327" from-port="2" to-layer="328" to-port="0"/>
		<edge from-layer="328" from-port="1" to-layer="331" to-port="0"/>
		<edge from-layer="329" from-port="0" to-layer="330" to-port="0"/>
		<edge from-layer="330" from-port="1" to-layer="331" to-port="1"/>
		<edge from-layer="331" from-port="2" to-layer="334" to-port="0"/>
		<edge from-layer="332" from-port="0" to-layer="333" to-port="0"/>
		<edge from-layer="333" from-port="1" to-layer="334" to-port="1"/>
		<edge from-layer="334" from-port="2" to-layer="335" to-port="0"/>
		<edge from-layer="335" from-port="1" to-layer="336" to-port="1"/>
		<edge from-layer="336" from-port="2" to-layer="339" to-port="0"/>
		<edge from-layer="337" from-port="0" to-layer="338" to-port="0"/>
		<edge from-layer="338" from-port="1" to-layer="339" to-port="1"/>
		<edge from-layer="339" from-port="2" to-layer="342" to-port="0"/>
		<edge from-layer="340" from-port="0" to-layer="341" to-port="0"/>
		<edge from-layer="341" from-port="1" to-layer="342" to-port="1"/>
		<edge from-layer="342" from-port="2" to-layer="343" to-port="0"/>
		<edge from-layer="343" from-port="1" to-layer="346" to-port="0"/>
		<edge from-layer="343" from-port="1" to-layer="358" to-port="0"/>
		<edge from-layer="344" from-port="0" to-layer="345" to-port="0"/>
		<edge from-layer="345" from-port="1" to-layer="346" to-port="1"/>
		<edge from-layer="346" from-port="2" to-layer="349" to-port="0"/>
		<edge from-layer="347" from-port="0" to-layer="348" to-port="0"/>
		<edge from-layer="348" from-port="1" to-layer="349" to-port="1"/>
		<edge from-layer="349" from-port="2" to-layer="350" to-port="0"/>
		<edge from-layer="350" from-port="1" to-layer="353" to-port="0"/>
		<edge from-layer="351" from-port="0" to-layer="352" to-port="0"/>
		<edge from-layer="352" from-port="1" to-layer="353" to-port="1"/>
		<edge from-layer="353" from-port="2" to-layer="356" to-port="0"/>
		<edge from-layer="354" from-port="0" to-layer="355" to-port="0"/>
		<edge from-layer="355" from-port="1" to-layer="356" to-port="1"/>
		<edge from-layer="356" from-port="2" to-layer="357" to-port="0"/>
		<edge from-layer="357" from-port="1" to-layer="358" to-port="1"/>
		<edge from-layer="358" from-port="2" to-layer="361" to-port="0"/>
		<edge from-layer="359" from-port="0" to-layer="360" to-port="0"/>
		<edge from-layer="360" from-port="1" to-layer="361" to-port="1"/>
		<edge from-layer="361" from-port="2" to-layer="364" to-port="0"/>
		<edge from-layer="362" from-port="0" to-layer="363" to-port="0"/>
		<edge from-layer="363" from-port="1" to-layer="364" to-port="1"/>
		<edge from-layer="364" from-port="2" to-layer="365" to-port="0"/>
		<edge from-layer="365" from-port="1" to-layer="368" to-port="0"/>
		<edge from-layer="365" from-port="1" to-layer="380" to-port="0"/>
		<edge from-layer="366" from-port="0" to-layer="367" to-port="0"/>
		<edge from-layer="367" from-port="1" to-layer="368" to-port="1"/>
		<edge from-layer="368" from-port="2" to-layer="371" to-port="0"/>
		<edge from-layer="369" from-port="0" to-layer="370" to-port="0"/>
		<edge from-layer="370" from-port="1" to-layer="371" to-port="1"/>
		<edge from-layer="371" from-port="2" to-layer="372" to-port="0"/>
		<edge from-layer="372" from-port="1" to-layer="375" to-port="0"/>
		<edge from-layer="373" from-port="0" to-layer="374" to-port="0"/>
		<edge from-layer="374" from-port="1" to-layer="375" to-port="1"/>
		<edge from-layer="375" from-port="2" to-layer="378" to-port="0"/>
		<edge from-layer="376" from-port="0" to-layer="377" to-port="0"/>
		<edge from-layer="377" from-port="1" to-layer="378" to-port="1"/>
		<edge from-layer="378" from-port="2" to-layer="379" to-port="0"/>
		<edge from-layer="379" from-port="1" to-layer="380" to-port="1"/>
		<edge from-layer="380" from-port="2" to-layer="383" to-port="0"/>
		<edge from-layer="380" from-port="2" to-layer="397" to-port="0"/>
		<edge from-layer="381" from-port="0" to-layer="382" to-port="0"/>
		<edge from-layer="382" from-port="1" to-layer="383" to-port="1"/>
		<edge from-layer="383" from-port="2" to-layer="386" to-port="0"/>
		<edge from-layer="384" from-port="0" to-layer="385" to-port="0"/>
		<edge from-layer="385" from-port="1" to-layer="386" to-port="1"/>
		<edge from-layer="386" from-port="2" to-layer="387" to-port="0"/>
		<edge from-layer="387" from-port="1" to-layer="390" to-port="0"/>
		<edge from-layer="388" from-port="0" to-layer="389" to-port="0"/>
		<edge from-layer="389" from-port="1" to-layer="390" to-port="1"/>
		<edge from-layer="390" from-port="2" to-layer="393" to-port="0"/>
		<edge from-layer="391" from-port="0" to-layer="392" to-port="0"/>
		<edge from-layer="392" from-port="1" to-layer="393" to-port="1"/>
		<edge from-layer="393" from-port="2" to-layer="394" to-port="0"/>
		<edge from-layer="395" from-port="0" to-layer="396" to-port="0"/>
		<edge from-layer="396" from-port="1" to-layer="397" to-port="1"/>
		<edge from-layer="397" from-port="2" to-layer="400" to-port="0"/>
		<edge from-layer="398" from-port="0" to-layer="399" to-port="0"/>
		<edge from-layer="399" from-port="1" to-layer="400" to-port="1"/>
		<edge from-layer="400" from-port="2" to-layer="401" to-port="0"/>
		<edge from-layer="401" from-port="1" to-layer="404" to-port="0"/>
		<edge from-layer="402" from-port="0" to-layer="403" to-port="0"/>
		<edge from-layer="403" from-port="1" to-layer="404" to-port="1"/>
		<edge from-layer="404" from-port="2" to-layer="407" to-port="0"/>
		<edge from-layer="405" from-port="0" to-layer="406" to-port="0"/>
		<edge from-layer="406" from-port="1" to-layer="407" to-port="1"/>
		<edge from-layer="407" from-port="2" to-layer="408" to-port="0"/>
	</edges>
	<meta_data>
		<MO_version value="2022.1.0-6910-173f328c53d"/>
		<Runtime_version value="2022.1.0-6910-173f328c53d"/>
		<legacy_path value="True"/>
		<cli_parameters>
			<caffe_parser_path value="DIR"/>
			<compress_fp16 value="True"/>
			<data_type value="FP16"/>
			<disable_nhwc_to_nchw value="False"/>
			<disable_omitting_optional value="False"/>
			<disable_resnet_optimization value="False"/>
			<disable_weights_compression value="False"/>
			<enable_concat_optimization value="False"/>
			<enable_flattening_nested_params value="False"/>
			<enable_ssd_gluoncv value="False"/>
			<extensions value="DIR"/>
			<framework value="caffe"/>
			<freeze_placeholder_with_value value="{}"/>
			<generate_deprecated_IR_V7 value="False"/>
			<input value="data"/>
			<input_model value="DIR/icv-hpe-0001.caffemodel"/>
			<input_model_is_text value="False"/>
			<input_proto value="DIR/icv-hpe-0001.prototxt"/>
			<input_shape value="[1,3,256,456]"/>
			<k value="DIR/CustomLayersMapping.xml"/>
			<keep_shape_ops value="True"/>
			<layout value="data(nchw)"/>
			<layout_values value="{'data': {'source_layout': 'nchw', 'target_layout': None, 'is_input': True}}"/>
			<legacy_ir_generation value="False"/>
			<legacy_mxnet_model value="False"/>
			<log_level value="ERROR"/>
			<mean_scale_values value="{'data': {'mean': array([128., 128., 128.]), 'scale': array([255.])}}"/>
			<mean_values value="data[128.0,128.0,128.0]"/>
			<model_name value="human-pose-estimation-0001"/>
			<output value="['Mconv7_stage2_L1', 'Mconv7_stage2_L2']"/>
			<output_dir value="DIR"/>
			<packed_user_shapes value="defaultdict(&lt;class 'list'&gt;, {'data': [{'shape': (1, 3, 256, 456), 'port': None, 'added': True}]})"/>
			<placeholder_data_types value="{}"/>
			<placeholder_shapes value="{'data': (1, 3, 256, 456)}"/>
			<progress value="False"/>
			<remove_memory value="False"/>
			<remove_output_softmax value="False"/>
			<reverse_input_channels value="False"/>
			<save_params_from_nd value="False"/>
			<scale_values value="data[255.0]"/>
			<silent value="False"/>
			<source_layout value="()"/>
			<static_shape value="False"/>
			<stream_output value="False"/>
			<target_layout value="()"/>
			<transform value=""/>
			<use_legacy_frontend value="False"/>
			<use_new_frontend value="False"/>
			<unset unset_cli_parameters="batch, counts, disable_fusing, disable_gfusing, finegrain_fusing, input_checkpoint, input_meta_graph, input_symbol, mean_file, mean_file_offsets, move_to_preprocess, nd_prefix_name, pretrained_model_name, saved_model_dir, saved_model_tags, scale, tensorboard_logdir, tensorflow_custom_layer_libraries, tensorflow_custom_operations_config_update, tensorflow_object_detection_api_pipeline_config, tensorflow_use_custom_operations_config, transformations_config"/>
		</cli_parameters>
	</meta_data>
</net>
